{"modelTopology": {"node": [{"name": "strided_slice_2/stack", "op": "Const", "attr": {"dtype": {"type": "DT_INT32"}, "value": {"tensor": {"dtype": "DT_INT32", "tensorShape": {"dim": [{"size": "1"}]}}}}}, {"name": "strided_slice/stack_1", "op": "Const", "attr": {"value": {"tensor": {"dtype": "DT_INT32", "tensorShape": {"dim": [{"size": "1"}]}}}, "dtype": {"type": "DT_INT32"}}}, {"name": "ImageTensor", "op": "Placeholder", "attr": {"dtype": {"type": "DT_UINT8"}, "shape": {"shape": {"dim": [{"size": "1"}, {"size": "-1"}, {"size": "-1"}, {"size": "3"}]}}}}, {"name": "Assert/Assert/data_1", "op": "Const", "attr": {"value": {"tensor": {"dtype": "DT_INT32", "tensorShape": {}}}, "dtype": {"type": "DT_INT32"}}}, {"name": "strided_slice_2/stack_1", "op": "Const", "attr": {"value": {"tensor": {"dtype": "DT_INT32", "tensorShape": {"dim": [{"size": "1"}]}}}, "dtype": {"type": "DT_INT32"}}}, {"name": "strided_slice_1/stack", "op": "Const", "attr": {"value": {"tensor": {"dtype": "DT_INT32", "tensorShape": {"dim": [{"size": "1"}]}}}, "dtype": {"type": "DT_INT32"}}}, {"name": "Slice/size/0", "op": "Const", "attr": {"value": {"tensor": {"dtype": "DT_INT32", "tensorShape": {}}}, "dtype": {"type": "DT_INT32"}}}, {"name": "Slice/begin", "op": "Const", "attr": {"value": {"tensor": {"dtype": "DT_INT32", "tensorShape": {"dim": [{"size": "3"}]}}}, "dtype": {"type": "DT_INT32"}}}, {"name": "strided_slice_6", "op": "Const", "attr": {"value": {"tensor": {"dtype": "DT_INT32", "tensorShape": {"dim": [{"size": "2"}]}}}, "dtype": {"type": "DT_INT32"}}}, {"name": "ResizeBilinear/size", "op": "Const", "attr": {"dtype": {"type": "DT_INT32"}, "value": {"tensor": {"dtype": "DT_INT32", "tensorShape": {"dim": [{"size": "2"}]}}}}}, {"name": "logits/semantic/biases", "op": "Const", "attr": {"value": {"tensor": {"dtype": "DT_FLOAT", "tensorShape": {"dim": [{"size": "21"}]}}}, "dtype": {"type": "DT_FLOAT"}}}, {"name": "logits/semantic/weights", "op": "Const", "attr": {"value": {"tensor": {"dtype": "DT_FLOAT", "tensorShape": {"dim": [{"size": "1"}, {"size": "1"}, {"size": "256"}, {"size": "21"}]}}}, "dtype": {"type": "DT_FLOAT"}}}, {"name": "concat_projection/BatchNorm/FusedBatchNorm/Offset", "op": "Const", "attr": {"value": {"tensor": {"dtype": "DT_FLOAT", "tensorShape": {"dim": [{"size": "256"}]}}}, "dtype": {"type": "DT_FLOAT"}}}, {"name": "concat_projection/Conv2D/merged_input", "op": "Const", "attr": {"value": {"tensor": {"dtype": "DT_FLOAT", "tensorShape": {"dim": [{"size": "1"}, {"size": "1"}, {"size": "512"}, {"size": "256"}]}}}, "dtype": {"type": "DT_FLOAT"}}}, {"name": "aspp0/BatchNorm/FusedBatchNorm/Offset", "op": "Const", "attr": {"value": {"tensor": {"dtype": "DT_FLOAT", "tensorShape": {"dim": [{"size": "256"}]}}}, "dtype": {"type": "DT_FLOAT"}}}, {"name": "aspp0/Conv2D/merged_input", "op": "Const", "attr": {"value": {"tensor": {"dtype": "DT_FLOAT", "tensorShape": {"dim": [{"size": "1"}, {"size": "1"}, {"size": "160"}, {"size": "256"}]}}}, "dtype": {"type": "DT_FLOAT"}}}, {"name": "MobilenetV2/expanded_conv_16/project/BatchNorm/FusedBatchNorm/Offset", "op": "Const", "attr": {"value": {"tensor": {"dtype": "DT_FLOAT", "tensorShape": {"dim": [{"size": "160"}]}}}, "dtype": {"type": "DT_FLOAT"}}}, {"name": "MobilenetV2/expanded_conv_16/project/Conv2D/merged_input", "op": "Const", "attr": {"value": {"tensor": {"dtype": "DT_FLOAT", "tensorShape": {"dim": [{"size": "1"}, {"size": "1"}, {"size": "480"}, {"size": "160"}]}}}, "dtype": {"type": "DT_FLOAT"}}}, {"name": "MobilenetV2/expanded_conv_16/depthwise/BatchNorm/FusedBatchNorm/Offset", "op": "Const", "attr": {"value": {"tensor": {"dtype": "DT_FLOAT", "tensorShape": {"dim": [{"size": "480"}]}}}, "dtype": {"type": "DT_FLOAT"}}}, {"name": "MobilenetV2/expanded_conv_16/depthwise/BatchNorm/FusedBatchNorm/Scaled", "op": "Const", "attr": {"value": {"tensor": {"dtype": "DT_FLOAT", "tensorShape": {"dim": [{"size": "480"}]}}}, "dtype": {"type": "DT_FLOAT"}}}, {"name": "MobilenetV2/expanded_conv_15/depthwise/depthwise/BatchToSpaceND/crops", "op": "Const", "attr": {"value": {"tensor": {"dtype": "DT_INT32", "tensorShape": {"dim": [{"size": "2"}, {"size": "2"}]}}}, "dtype": {"type": "DT_INT32"}}}, {"name": "MobilenetV2/expanded_conv_15/depthwise/depthwise/SpaceToBatchND/block_shape", "op": "Const", "attr": {"value": {"tensor": {"dtype": "DT_INT32", "tensorShape": {"dim": [{"size": "2"}]}}}, "dtype": {"type": "DT_INT32"}}}, {"name": "MobilenetV2/expanded_conv_16/depthwise/depthwise_weights", "op": "Const", "attr": {"value": {"tensor": {"dtype": "DT_FLOAT", "tensorShape": {"dim": [{"size": "3"}, {"size": "3"}, {"size": "480"}, {"size": "1"}]}}}, "dtype": {"type": "DT_FLOAT"}}}, {"name": "MobilenetV2/expanded_conv_15/depthwise/depthwise/SpaceToBatchND/paddings", "op": "Const", "attr": {"value": {"tensor": {"dtype": "DT_INT32", "tensorShape": {"dim": [{"size": "2"}, {"size": "2"}]}}}, "dtype": {"type": "DT_INT32"}}}, {"name": "MobilenetV2/expanded_conv_16/expand/BatchNorm/FusedBatchNorm/Offset", "op": "Const", "attr": {"value": {"tensor": {"dtype": "DT_FLOAT", "tensorShape": {"dim": [{"size": "480"}]}}}, "dtype": {"type": "DT_FLOAT"}}}, {"name": "MobilenetV2/expanded_conv_16/expand/Conv2D/merged_input", "op": "Const", "attr": {"value": {"tensor": {"dtype": "DT_FLOAT", "tensorShape": {"dim": [{"size": "1"}, {"size": "1"}, {"size": "80"}, {"size": "480"}]}}}, "dtype": {"type": "DT_FLOAT"}}}, {"name": "MobilenetV2/expanded_conv_13/project/BatchNorm/FusedBatchNorm/Offset", "op": "Const", "attr": {"value": {"tensor": {"dtype": "DT_FLOAT", "tensorShape": {"dim": [{"size": "80"}]}}}, "dtype": {"type": "DT_FLOAT"}}}, {"name": "MobilenetV2/expanded_conv_13/project/Conv2D/merged_input", "op": "Const", "attr": {"value": {"tensor": {"dtype": "DT_FLOAT", "tensorShape": {"dim": [{"size": "1"}, {"size": "1"}, {"size": "288"}, {"size": "80"}]}}}, "dtype": {"type": "DT_FLOAT"}}}, {"name": "MobilenetV2/expanded_conv_13/depthwise/BatchNorm/FusedBatchNorm/Offset", "op": "Const", "attr": {"value": {"tensor": {"dtype": "DT_FLOAT", "tensorShape": {"dim": [{"size": "288"}]}}}, "dtype": {"type": "DT_FLOAT"}}}, {"name": "MobilenetV2/expanded_conv_13/depthwise/BatchNorm/FusedBatchNorm/Scaled", "op": "Const", "attr": {"value": {"tensor": {"dtype": "DT_FLOAT", "tensorShape": {"dim": [{"size": "288"}]}}}, "dtype": {"type": "DT_FLOAT"}}}, {"name": "MobilenetV2/expanded_conv_12/depthwise/depthwise/BatchToSpaceND/crops", "op": "Const", "attr": {"value": {"tensor": {"dtype": "DT_INT32", "tensorShape": {"dim": [{"size": "2"}, {"size": "2"}]}}}, "dtype": {"type": "DT_INT32"}}}, {"name": "MobilenetV2/expanded_conv_12/depthwise/depthwise/SpaceToBatchND/block_shape", "op": "Const", "attr": {"dtype": {"type": "DT_INT32"}, "value": {"tensor": {"dtype": "DT_INT32", "tensorShape": {"dim": [{"size": "2"}]}}}}}, {"name": "MobilenetV2/expanded_conv_13/depthwise/depthwise_weights", "op": "Const", "attr": {"value": {"tensor": {"dtype": "DT_FLOAT", "tensorShape": {"dim": [{"size": "3"}, {"size": "3"}, {"size": "288"}, {"size": "1"}]}}}, "dtype": {"type": "DT_FLOAT"}}}, {"name": "MobilenetV2/expanded_conv_12/depthwise/depthwise/SpaceToBatchND/paddings", "op": "Const", "attr": {"value": {"tensor": {"dtype": "DT_INT32", "tensorShape": {"dim": [{"size": "2"}, {"size": "2"}]}}}, "dtype": {"type": "DT_INT32"}}}, {"name": "MobilenetV2/expanded_conv_13/expand/BatchNorm/FusedBatchNorm/Offset", "op": "Const", "attr": {"value": {"tensor": {"dtype": "DT_FLOAT", "tensorShape": {"dim": [{"size": "288"}]}}}, "dtype": {"type": "DT_FLOAT"}}}, {"name": "MobilenetV2/expanded_conv_13/expand/Conv2D/merged_input", "op": "Const", "attr": {"value": {"tensor": {"dtype": "DT_FLOAT", "tensorShape": {"dim": [{"size": "1"}, {"size": "1"}, {"size": "48"}, {"size": "288"}]}}}, "dtype": {"type": "DT_FLOAT"}}}, {"name": "MobilenetV2/expanded_conv_10/project/BatchNorm/FusedBatchNorm/Offset", "op": "Const", "attr": {"value": {"tensor": {"dtype": "DT_FLOAT", "tensorShape": {"dim": [{"size": "48"}]}}}, "dtype": {"type": "DT_FLOAT"}}}, {"name": "MobilenetV2/expanded_conv_10/project/Conv2D/merged_input", "op": "Const", "attr": {"value": {"tensor": {"dtype": "DT_FLOAT", "tensorShape": {"dim": [{"size": "1"}, {"size": "1"}, {"size": "192"}, {"size": "48"}]}}}, "dtype": {"type": "DT_FLOAT"}}}, {"name": "MobilenetV2/expanded_conv_10/depthwise/BatchNorm/FusedBatchNorm/Offset", "op": "Const", "attr": {"value": {"tensor": {"dtype": "DT_FLOAT", "tensorShape": {"dim": [{"size": "192"}]}}}, "dtype": {"type": "DT_FLOAT"}}}, {"name": "MobilenetV2/expanded_conv_10/depthwise/BatchNorm/FusedBatchNorm/Scaled", "op": "Const", "attr": {"value": {"tensor": {"dtype": "DT_FLOAT", "tensorShape": {"dim": [{"size": "192"}]}}}, "dtype": {"type": "DT_FLOAT"}}}, {"name": "MobilenetV2/expanded_conv_10/depthwise/depthwise_weights", "op": "Const", "attr": {"value": {"tensor": {"dtype": "DT_FLOAT", "tensorShape": {"dim": [{"size": "3"}, {"size": "3"}, {"size": "192"}, {"size": "1"}]}}}, "dtype": {"type": "DT_FLOAT"}}}, {"name": "MobilenetV2/expanded_conv_10/expand/BatchNorm/FusedBatchNorm/Offset", "op": "Const", "attr": {"value": {"tensor": {"dtype": "DT_FLOAT", "tensorShape": {"dim": [{"size": "192"}]}}}, "dtype": {"type": "DT_FLOAT"}}}, {"name": "MobilenetV2/expanded_conv_10/expand/Conv2D/merged_input", "op": "Const", "attr": {"value": {"tensor": {"dtype": "DT_FLOAT", "tensorShape": {"dim": [{"size": "1"}, {"size": "1"}, {"size": "32"}, {"size": "192"}]}}}, "dtype": {"type": "DT_FLOAT"}}}, {"name": "MobilenetV2/expanded_conv_6/project/BatchNorm/FusedBatchNorm/Offset", "op": "Const", "attr": {"value": {"tensor": {"dtype": "DT_FLOAT", "tensorShape": {"dim": [{"size": "32"}]}}}, "dtype": {"type": "DT_FLOAT"}}}, {"name": "MobilenetV2/expanded_conv_6/project/Conv2D/merged_input", "op": "Const", "attr": {"value": {"tensor": {"dtype": "DT_FLOAT", "tensorShape": {"dim": [{"size": "1"}, {"size": "1"}, {"size": "96"}, {"size": "32"}]}}}, "dtype": {"type": "DT_FLOAT"}}}, {"name": "MobilenetV2/expanded_conv_6/depthwise/BatchNorm/FusedBatchNorm/Offset", "op": "Const", "attr": {"value": {"tensor": {"dtype": "DT_FLOAT", "tensorShape": {"dim": [{"size": "96"}]}}}, "dtype": {"type": "DT_FLOAT"}}}, {"name": "MobilenetV2/expanded_conv_6/depthwise/BatchNorm/FusedBatchNorm/Scaled", "op": "Const", "attr": {"value": {"tensor": {"dtype": "DT_FLOAT", "tensorShape": {"dim": [{"size": "96"}]}}}, "dtype": {"type": "DT_FLOAT"}}}, {"name": "MobilenetV2/expanded_conv_6/depthwise/depthwise_weights", "op": "Const", "attr": {"value": {"tensor": {"dtype": "DT_FLOAT", "tensorShape": {"dim": [{"size": "3"}, {"size": "3"}, {"size": "96"}, {"size": "1"}]}}}, "dtype": {"type": "DT_FLOAT"}}}, {"name": "MobilenetV2/expanded_conv_6/expand/BatchNorm/FusedBatchNorm/Offset", "op": "Const", "attr": {"value": {"tensor": {"dtype": "DT_FLOAT", "tensorShape": {"dim": [{"size": "96"}]}}}, "dtype": {"type": "DT_FLOAT"}}}, {"name": "MobilenetV2/expanded_conv_6/expand/Conv2D/merged_input", "op": "Const", "attr": {"value": {"tensor": {"dtype": "DT_FLOAT", "tensorShape": {"dim": [{"size": "1"}, {"size": "1"}, {"size": "16"}, {"size": "96"}]}}}, "dtype": {"type": "DT_FLOAT"}}}, {"name": "MobilenetV2/expanded_conv_3/project/BatchNorm/FusedBatchNorm/Offset", "op": "Const", "attr": {"value": {"tensor": {"dtype": "DT_FLOAT", "tensorShape": {"dim": [{"size": "16"}]}}}, "dtype": {"type": "DT_FLOAT"}}}, {"name": "MobilenetV2/expanded_conv_3/project/Conv2D/merged_input", "op": "Const", "attr": {"value": {"tensor": {"dtype": "DT_FLOAT", "tensorShape": {"dim": [{"size": "1"}, {"size": "1"}, {"size": "72"}, {"size": "16"}]}}}, "dtype": {"type": "DT_FLOAT"}}}, {"name": "MobilenetV2/expanded_conv_3/depthwise/BatchNorm/FusedBatchNorm/Offset", "op": "Const", "attr": {"value": {"tensor": {"dtype": "DT_FLOAT", "tensorShape": {"dim": [{"size": "72"}]}}}, "dtype": {"type": "DT_FLOAT"}}}, {"name": "MobilenetV2/expanded_conv_3/depthwise/BatchNorm/FusedBatchNorm/Scaled", "op": "Const", "attr": {"value": {"tensor": {"dtype": "DT_FLOAT", "tensorShape": {"dim": [{"size": "72"}]}}}, "dtype": {"type": "DT_FLOAT"}}}, {"name": "MobilenetV2/expanded_conv_3/depthwise/depthwise_weights", "op": "Const", "attr": {"value": {"tensor": {"dtype": "DT_FLOAT", "tensorShape": {"dim": [{"size": "3"}, {"size": "3"}, {"size": "72"}, {"size": "1"}]}}}, "dtype": {"type": "DT_FLOAT"}}}, {"name": "MobilenetV2/expanded_conv_3/expand/BatchNorm/FusedBatchNorm/Offset", "op": "Const", "attr": {"value": {"tensor": {"dtype": "DT_FLOAT", "tensorShape": {"dim": [{"size": "72"}]}}}, "dtype": {"type": "DT_FLOAT"}}}, {"name": "MobilenetV2/expanded_conv_3/expand/Conv2D/merged_input", "op": "Const", "attr": {"value": {"tensor": {"dtype": "DT_FLOAT", "tensorShape": {"dim": [{"size": "1"}, {"size": "1"}, {"size": "12"}, {"size": "72"}]}}}, "dtype": {"type": "DT_FLOAT"}}}, {"name": "MobilenetV2/expanded_conv_1/project/BatchNorm/FusedBatchNorm/Offset", "op": "Const", "attr": {"value": {"tensor": {"dtype": "DT_FLOAT", "tensorShape": {"dim": [{"size": "12"}]}}}, "dtype": {"type": "DT_FLOAT"}}}, {"name": "MobilenetV2/expanded_conv_1/project/Conv2D/merged_input", "op": "Const", "attr": {"dtype": {"type": "DT_FLOAT"}, "value": {"tensor": {"dtype": "DT_FLOAT", "tensorShape": {"dim": [{"size": "1"}, {"size": "1"}, {"size": "48"}, {"size": "12"}]}}}}}, {"name": "MobilenetV2/expanded_conv_1/depthwise/BatchNorm/FusedBatchNorm/Offset", "op": "Const", "attr": {"dtype": {"type": "DT_FLOAT"}, "value": {"tensor": {"dtype": "DT_FLOAT", "tensorShape": {"dim": [{"size": "48"}]}}}}}, {"name": "MobilenetV2/expanded_conv_1/depthwise/BatchNorm/FusedBatchNorm/Scaled", "op": "Const", "attr": {"value": {"tensor": {"dtype": "DT_FLOAT", "tensorShape": {"dim": [{"size": "48"}]}}}, "dtype": {"type": "DT_FLOAT"}}}, {"name": "MobilenetV2/expanded_conv_1/depthwise/depthwise_weights", "op": "Const", "attr": {"dtype": {"type": "DT_FLOAT"}, "value": {"tensor": {"dtype": "DT_FLOAT", "tensorShape": {"dim": [{"size": "3"}, {"size": "3"}, {"size": "48"}, {"size": "1"}]}}}}}, {"name": "MobilenetV2/expanded_conv_1/expand/BatchNorm/FusedBatchNorm/Offset", "op": "Const", "attr": {"value": {"tensor": {"dtype": "DT_FLOAT", "tensorShape": {"dim": [{"size": "48"}]}}}, "dtype": {"type": "DT_FLOAT"}}}, {"name": "MobilenetV2/expanded_conv_1/expand/Conv2D/merged_input", "op": "Const", "attr": {"value": {"tensor": {"dtype": "DT_FLOAT", "tensorShape": {"dim": [{"size": "1"}, {"size": "1"}, {"size": "8"}, {"size": "48"}]}}}, "dtype": {"type": "DT_FLOAT"}}}, {"name": "MobilenetV2/expanded_conv/project/BatchNorm/FusedBatchNorm/Offset", "op": "Const", "attr": {"value": {"tensor": {"dtype": "DT_FLOAT", "tensorShape": {"dim": [{"size": "8"}]}}}, "dtype": {"type": "DT_FLOAT"}}}, {"name": "MobilenetV2/expanded_conv/project/Conv2D/merged_input", "op": "Const", "attr": {"value": {"tensor": {"dtype": "DT_FLOAT", "tensorShape": {"dim": [{"size": "1"}, {"size": "1"}, {"size": "16"}, {"size": "8"}]}}}, "dtype": {"type": "DT_FLOAT"}}}, {"name": "MobilenetV2/expanded_conv/depthwise/BatchNorm/FusedBatchNorm/Offset", "op": "Const", "attr": {"value": {"tensor": {"dtype": "DT_FLOAT", "tensorShape": {"dim": [{"size": "16"}]}}}, "dtype": {"type": "DT_FLOAT"}}}, {"name": "MobilenetV2/expanded_conv/depthwise/BatchNorm/FusedBatchNorm/Scaled", "op": "Const", "attr": {"value": {"tensor": {"dtype": "DT_FLOAT", "tensorShape": {"dim": [{"size": "16"}]}}}, "dtype": {"type": "DT_FLOAT"}}}, {"name": "MobilenetV2/expanded_conv/depthwise/depthwise_weights", "op": "Const", "attr": {"value": {"tensor": {"dtype": "DT_FLOAT", "tensorShape": {"dim": [{"size": "3"}, {"size": "3"}, {"size": "16"}, {"size": "1"}]}}}, "dtype": {"type": "DT_FLOAT"}}}, {"name": "MobilenetV2/Conv/BatchNorm/FusedBatchNorm/Offset", "op": "Const", "attr": {"value": {"tensor": {"dtype": "DT_FLOAT", "tensorShape": {"dim": [{"size": "16"}]}}}, "dtype": {"type": "DT_FLOAT"}}}, {"name": "MobilenetV2/Conv/Conv2D/merged_input", "op": "Const", "attr": {"value": {"tensor": {"dtype": "DT_FLOAT", "tensorShape": {"dim": [{"size": "3"}, {"size": "3"}, {"size": "3"}, {"size": "16"}]}}}, "dtype": {"type": "DT_FLOAT"}}}, {"name": "sub_7/y", "op": "Const", "attr": {"value": {"tensor": {"dtype": "DT_FLOAT", "tensorShape": {}}}, "dtype": {"type": "DT_FLOAT"}}}, {"name": "stack/0", "op": "Const", "attr": {"value": {"tensor": {"dtype": "DT_INT32", "tensorShape": {}}}, "dtype": {"type": "DT_INT32"}}}, {"name": "Reshape", "op": "Const", "attr": {"value": {"tensor": {"dtype": "DT_FLOAT", "tensorShape": {"dim": [{"size": "1"}, {"size": "1"}, {"size": "3"}]}}}, "dtype": {"type": "DT_FLOAT"}}}, {"name": "stack_2", "op": "Const", "attr": {"value": {"tensor": {"dtype": "DT_INT32", "tensorShape": {"dim": [{"size": "2"}]}}}, "dtype": {"type": "DT_INT32"}}}, {"name": "sub_1/x", "op": "Const", "attr": {"value": {"tensor": {"dtype": "DT_INT32", "tensorShape": {}}}, "dtype": {"type": "DT_INT32"}}}, {"name": "mul/x", "op": "Const", "attr": {"value": {"tensor": {"dtype": "DT_FLOAT", "tensorShape": {}}}, "dtype": {"type": "DT_FLOAT"}}}, {"name": "MobilenetV2/expanded_conv_2/project/Conv2D/merged_input", "op": "Const", "attr": {"value": {"tensor": {"dtype": "DT_FLOAT", "tensorShape": {"dim": [{"size": "1"}, {"size": "1"}, {"size": "72"}, {"size": "12"}]}}}, "dtype": {"type": "DT_FLOAT"}}}, {"name": "MobilenetV2/expanded_conv_2/depthwise/BatchNorm/FusedBatchNorm/Offset", "op": "Const", "attr": {"value": {"tensor": {"dtype": "DT_FLOAT", "tensorShape": {"dim": [{"size": "72"}]}}}, "dtype": {"type": "DT_FLOAT"}}}, {"name": "MobilenetV2/expanded_conv_2/depthwise/BatchNorm/FusedBatchNorm/Scaled", "op": "Const", "attr": {"value": {"tensor": {"dtype": "DT_FLOAT", "tensorShape": {"dim": [{"size": "72"}]}}}, "dtype": {"type": "DT_FLOAT"}}}, {"name": "MobilenetV2/expanded_conv_2/depthwise/depthwise_weights", "op": "Const", "attr": {"value": {"tensor": {"dtype": "DT_FLOAT", "tensorShape": {"dim": [{"size": "3"}, {"size": "3"}, {"size": "72"}, {"size": "1"}]}}}, "dtype": {"type": "DT_FLOAT"}}}, {"name": "MobilenetV2/expanded_conv_2/expand/BatchNorm/FusedBatchNorm/Offset", "op": "Const", "attr": {"value": {"tensor": {"dtype": "DT_FLOAT", "tensorShape": {"dim": [{"size": "72"}]}}}, "dtype": {"type": "DT_FLOAT"}}}, {"name": "MobilenetV2/expanded_conv_2/expand/Conv2D/merged_input", "op": "Const", "attr": {"value": {"tensor": {"dtype": "DT_FLOAT", "tensorShape": {"dim": [{"size": "1"}, {"size": "1"}, {"size": "12"}, {"size": "72"}]}}}, "dtype": {"type": "DT_FLOAT"}}}, {"name": "MobilenetV2/expanded_conv_2/project/BatchNorm/FusedBatchNorm/Offset", "op": "Const", "attr": {"value": {"tensor": {"dtype": "DT_FLOAT", "tensorShape": {"dim": [{"size": "12"}]}}}, "dtype": {"type": "DT_FLOAT"}}}, {"name": "MobilenetV2/expanded_conv_4/project/Conv2D/merged_input", "op": "Const", "attr": {"value": {"tensor": {"dtype": "DT_FLOAT", "tensorShape": {"dim": [{"size": "1"}, {"size": "1"}, {"size": "96"}, {"size": "16"}]}}}, "dtype": {"type": "DT_FLOAT"}}}, {"name": "MobilenetV2/expanded_conv_4/depthwise/BatchNorm/FusedBatchNorm/Offset", "op": "Const", "attr": {"dtype": {"type": "DT_FLOAT"}, "value": {"tensor": {"dtype": "DT_FLOAT", "tensorShape": {"dim": [{"size": "96"}]}}}}}, {"name": "MobilenetV2/expanded_conv_4/depthwise/BatchNorm/FusedBatchNorm/Scaled", "op": "Const", "attr": {"value": {"tensor": {"dtype": "DT_FLOAT", "tensorShape": {"dim": [{"size": "96"}]}}}, "dtype": {"type": "DT_FLOAT"}}}, {"name": "MobilenetV2/expanded_conv_4/depthwise/depthwise_weights", "op": "Const", "attr": {"value": {"tensor": {"dtype": "DT_FLOAT", "tensorShape": {"dim": [{"size": "3"}, {"size": "3"}, {"size": "96"}, {"size": "1"}]}}}, "dtype": {"type": "DT_FLOAT"}}}, {"name": "MobilenetV2/expanded_conv_4/expand/BatchNorm/FusedBatchNorm/Offset", "op": "Const", "attr": {"value": {"tensor": {"dtype": "DT_FLOAT", "tensorShape": {"dim": [{"size": "96"}]}}}, "dtype": {"type": "DT_FLOAT"}}}, {"name": "MobilenetV2/expanded_conv_4/expand/Conv2D/merged_input", "op": "Const", "attr": {"value": {"tensor": {"dtype": "DT_FLOAT", "tensorShape": {"dim": [{"size": "1"}, {"size": "1"}, {"size": "16"}, {"size": "96"}]}}}, "dtype": {"type": "DT_FLOAT"}}}, {"name": "MobilenetV2/expanded_conv_4/project/BatchNorm/FusedBatchNorm/Offset", "op": "Const", "attr": {"value": {"tensor": {"dtype": "DT_FLOAT", "tensorShape": {"dim": [{"size": "16"}]}}}, "dtype": {"type": "DT_FLOAT"}}}, {"name": "MobilenetV2/expanded_conv_5/project/Conv2D/merged_input", "op": "Const", "attr": {"value": {"tensor": {"dtype": "DT_FLOAT", "tensorShape": {"dim": [{"size": "1"}, {"size": "1"}, {"size": "96"}, {"size": "16"}]}}}, "dtype": {"type": "DT_FLOAT"}}}, {"name": "MobilenetV2/expanded_conv_5/depthwise/BatchNorm/FusedBatchNorm/Offset", "op": "Const", "attr": {"value": {"tensor": {"dtype": "DT_FLOAT", "tensorShape": {"dim": [{"size": "96"}]}}}, "dtype": {"type": "DT_FLOAT"}}}, {"name": "MobilenetV2/expanded_conv_5/depthwise/BatchNorm/FusedBatchNorm/Scaled", "op": "Const", "attr": {"value": {"tensor": {"dtype": "DT_FLOAT", "tensorShape": {"dim": [{"size": "96"}]}}}, "dtype": {"type": "DT_FLOAT"}}}, {"name": "MobilenetV2/expanded_conv_5/depthwise/depthwise_weights", "op": "Const", "attr": {"value": {"tensor": {"dtype": "DT_FLOAT", "tensorShape": {"dim": [{"size": "3"}, {"size": "3"}, {"size": "96"}, {"size": "1"}]}}}, "dtype": {"type": "DT_FLOAT"}}}, {"name": "MobilenetV2/expanded_conv_5/expand/BatchNorm/FusedBatchNorm/Offset", "op": "Const", "attr": {"value": {"tensor": {"dtype": "DT_FLOAT", "tensorShape": {"dim": [{"size": "96"}]}}}, "dtype": {"type": "DT_FLOAT"}}}, {"name": "MobilenetV2/expanded_conv_5/expand/Conv2D/merged_input", "op": "Const", "attr": {"value": {"tensor": {"dtype": "DT_FLOAT", "tensorShape": {"dim": [{"size": "1"}, {"size": "1"}, {"size": "16"}, {"size": "96"}]}}}, "dtype": {"type": "DT_FLOAT"}}}, {"name": "MobilenetV2/expanded_conv_5/project/BatchNorm/FusedBatchNorm/Offset", "op": "Const", "attr": {"value": {"tensor": {"dtype": "DT_FLOAT", "tensorShape": {"dim": [{"size": "16"}]}}}, "dtype": {"type": "DT_FLOAT"}}}, {"name": "MobilenetV2/expanded_conv_7/project/BatchNorm/FusedBatchNorm/Offset", "op": "Const", "attr": {"value": {"tensor": {"dtype": "DT_FLOAT", "tensorShape": {"dim": [{"size": "32"}]}}}, "dtype": {"type": "DT_FLOAT"}}}, {"name": "MobilenetV2/expanded_conv_7/project/Conv2D/merged_input", "op": "Const", "attr": {"value": {"tensor": {"dtype": "DT_FLOAT", "tensorShape": {"dim": [{"size": "1"}, {"size": "1"}, {"size": "192"}, {"size": "32"}]}}}, "dtype": {"type": "DT_FLOAT"}}}, {"name": "MobilenetV2/expanded_conv_7/depthwise/BatchNorm/FusedBatchNorm/Offset", "op": "Const", "attr": {"value": {"tensor": {"dtype": "DT_FLOAT", "tensorShape": {"dim": [{"size": "192"}]}}}, "dtype": {"type": "DT_FLOAT"}}}, {"name": "MobilenetV2/expanded_conv_7/depthwise/BatchNorm/FusedBatchNorm/Scaled", "op": "Const", "attr": {"value": {"tensor": {"dtype": "DT_FLOAT", "tensorShape": {"dim": [{"size": "192"}]}}}, "dtype": {"type": "DT_FLOAT"}}}, {"name": "MobilenetV2/expanded_conv_7/depthwise/depthwise_weights", "op": "Const", "attr": {"dtype": {"type": "DT_FLOAT"}, "value": {"tensor": {"dtype": "DT_FLOAT", "tensorShape": {"dim": [{"size": "3"}, {"size": "3"}, {"size": "192"}, {"size": "1"}]}}}}}, {"name": "MobilenetV2/expanded_conv_7/expand/BatchNorm/FusedBatchNorm/Offset", "op": "Const", "attr": {"value": {"tensor": {"dtype": "DT_FLOAT", "tensorShape": {"dim": [{"size": "192"}]}}}, "dtype": {"type": "DT_FLOAT"}}}, {"name": "MobilenetV2/expanded_conv_7/expand/Conv2D/merged_input", "op": "Const", "attr": {"value": {"tensor": {"dtype": "DT_FLOAT", "tensorShape": {"dim": [{"size": "1"}, {"size": "1"}, {"size": "32"}, {"size": "192"}]}}}, "dtype": {"type": "DT_FLOAT"}}}, {"name": "MobilenetV2/expanded_conv_8/project/BatchNorm/FusedBatchNorm/Offset", "op": "Const", "attr": {"value": {"tensor": {"dtype": "DT_FLOAT", "tensorShape": {"dim": [{"size": "32"}]}}}, "dtype": {"type": "DT_FLOAT"}}}, {"name": "MobilenetV2/expanded_conv_8/project/Conv2D/merged_input", "op": "Const", "attr": {"value": {"tensor": {"dtype": "DT_FLOAT", "tensorShape": {"dim": [{"size": "1"}, {"size": "1"}, {"size": "192"}, {"size": "32"}]}}}, "dtype": {"type": "DT_FLOAT"}}}, {"name": "MobilenetV2/expanded_conv_8/depthwise/BatchNorm/FusedBatchNorm/Offset", "op": "Const", "attr": {"value": {"tensor": {"dtype": "DT_FLOAT", "tensorShape": {"dim": [{"size": "192"}]}}}, "dtype": {"type": "DT_FLOAT"}}}, {"name": "MobilenetV2/expanded_conv_8/depthwise/BatchNorm/FusedBatchNorm/Scaled", "op": "Const", "attr": {"value": {"tensor": {"dtype": "DT_FLOAT", "tensorShape": {"dim": [{"size": "192"}]}}}, "dtype": {"type": "DT_FLOAT"}}}, {"name": "MobilenetV2/expanded_conv_8/depthwise/depthwise_weights", "op": "Const", "attr": {"value": {"tensor": {"dtype": "DT_FLOAT", "tensorShape": {"dim": [{"size": "3"}, {"size": "3"}, {"size": "192"}, {"size": "1"}]}}}, "dtype": {"type": "DT_FLOAT"}}}, {"name": "MobilenetV2/expanded_conv_8/expand/BatchNorm/FusedBatchNorm/Offset", "op": "Const", "attr": {"value": {"tensor": {"dtype": "DT_FLOAT", "tensorShape": {"dim": [{"size": "192"}]}}}, "dtype": {"type": "DT_FLOAT"}}}, {"name": "MobilenetV2/expanded_conv_8/expand/Conv2D/merged_input", "op": "Const", "attr": {"value": {"tensor": {"dtype": "DT_FLOAT", "tensorShape": {"dim": [{"size": "1"}, {"size": "1"}, {"size": "32"}, {"size": "192"}]}}}, "dtype": {"type": "DT_FLOAT"}}}, {"name": "MobilenetV2/expanded_conv_9/project/BatchNorm/FusedBatchNorm/Offset", "op": "Const", "attr": {"value": {"tensor": {"dtype": "DT_FLOAT", "tensorShape": {"dim": [{"size": "32"}]}}}, "dtype": {"type": "DT_FLOAT"}}}, {"name": "MobilenetV2/expanded_conv_9/project/Conv2D/merged_input", "op": "Const", "attr": {"value": {"tensor": {"dtype": "DT_FLOAT", "tensorShape": {"dim": [{"size": "1"}, {"size": "1"}, {"size": "192"}, {"size": "32"}]}}}, "dtype": {"type": "DT_FLOAT"}}}, {"name": "MobilenetV2/expanded_conv_9/depthwise/BatchNorm/FusedBatchNorm/Offset", "op": "Const", "attr": {"value": {"tensor": {"dtype": "DT_FLOAT", "tensorShape": {"dim": [{"size": "192"}]}}}, "dtype": {"type": "DT_FLOAT"}}}, {"name": "MobilenetV2/expanded_conv_9/depthwise/BatchNorm/FusedBatchNorm/Scaled", "op": "Const", "attr": {"value": {"tensor": {"dtype": "DT_FLOAT", "tensorShape": {"dim": [{"size": "192"}]}}}, "dtype": {"type": "DT_FLOAT"}}}, {"name": "MobilenetV2/expanded_conv_9/depthwise/depthwise_weights", "op": "Const", "attr": {"value": {"tensor": {"dtype": "DT_FLOAT", "tensorShape": {"dim": [{"size": "3"}, {"size": "3"}, {"size": "192"}, {"size": "1"}]}}}, "dtype": {"type": "DT_FLOAT"}}}, {"name": "MobilenetV2/expanded_conv_9/expand/BatchNorm/FusedBatchNorm/Offset", "op": "Const", "attr": {"value": {"tensor": {"dtype": "DT_FLOAT", "tensorShape": {"dim": [{"size": "192"}]}}}, "dtype": {"type": "DT_FLOAT"}}}, {"name": "MobilenetV2/expanded_conv_9/expand/Conv2D/merged_input", "op": "Const", "attr": {"value": {"tensor": {"dtype": "DT_FLOAT", "tensorShape": {"dim": [{"size": "1"}, {"size": "1"}, {"size": "32"}, {"size": "192"}]}}}, "dtype": {"type": "DT_FLOAT"}}}, {"name": "MobilenetV2/expanded_conv_11/project/BatchNorm/FusedBatchNorm/Offset", "op": "Const", "attr": {"value": {"tensor": {"dtype": "DT_FLOAT", "tensorShape": {"dim": [{"size": "48"}]}}}, "dtype": {"type": "DT_FLOAT"}}}, {"name": "MobilenetV2/expanded_conv_11/project/Conv2D/merged_input", "op": "Const", "attr": {"value": {"tensor": {"dtype": "DT_FLOAT", "tensorShape": {"dim": [{"size": "1"}, {"size": "1"}, {"size": "288"}, {"size": "48"}]}}}, "dtype": {"type": "DT_FLOAT"}}}, {"name": "MobilenetV2/expanded_conv_11/depthwise/BatchNorm/FusedBatchNorm/Offset", "op": "Const", "attr": {"value": {"tensor": {"dtype": "DT_FLOAT", "tensorShape": {"dim": [{"size": "288"}]}}}, "dtype": {"type": "DT_FLOAT"}}}, {"name": "MobilenetV2/expanded_conv_11/depthwise/BatchNorm/FusedBatchNorm/Scaled", "op": "Const", "attr": {"value": {"tensor": {"dtype": "DT_FLOAT", "tensorShape": {"dim": [{"size": "288"}]}}}, "dtype": {"type": "DT_FLOAT"}}}, {"name": "MobilenetV2/expanded_conv_11/depthwise/depthwise_weights", "op": "Const", "attr": {"value": {"tensor": {"dtype": "DT_FLOAT", "tensorShape": {"dim": [{"size": "3"}, {"size": "3"}, {"size": "288"}, {"size": "1"}]}}}, "dtype": {"type": "DT_FLOAT"}}}, {"name": "MobilenetV2/expanded_conv_11/expand/BatchNorm/FusedBatchNorm/Offset", "op": "Const", "attr": {"dtype": {"type": "DT_FLOAT"}, "value": {"tensor": {"dtype": "DT_FLOAT", "tensorShape": {"dim": [{"size": "288"}]}}}}}, {"name": "MobilenetV2/expanded_conv_11/expand/Conv2D/merged_input", "op": "Const", "attr": {"value": {"tensor": {"dtype": "DT_FLOAT", "tensorShape": {"dim": [{"size": "1"}, {"size": "1"}, {"size": "48"}, {"size": "288"}]}}}, "dtype": {"type": "DT_FLOAT"}}}, {"name": "MobilenetV2/expanded_conv_12/project/BatchNorm/FusedBatchNorm/Offset", "op": "Const", "attr": {"value": {"tensor": {"dtype": "DT_FLOAT", "tensorShape": {"dim": [{"size": "48"}]}}}, "dtype": {"type": "DT_FLOAT"}}}, {"name": "MobilenetV2/expanded_conv_12/project/Conv2D/merged_input", "op": "Const", "attr": {"value": {"tensor": {"dtype": "DT_FLOAT", "tensorShape": {"dim": [{"size": "1"}, {"size": "1"}, {"size": "288"}, {"size": "48"}]}}}, "dtype": {"type": "DT_FLOAT"}}}, {"name": "MobilenetV2/expanded_conv_12/depthwise/BatchNorm/FusedBatchNorm/Offset", "op": "Const", "attr": {"value": {"tensor": {"dtype": "DT_FLOAT", "tensorShape": {"dim": [{"size": "288"}]}}}, "dtype": {"type": "DT_FLOAT"}}}, {"name": "MobilenetV2/expanded_conv_12/depthwise/BatchNorm/FusedBatchNorm/Scaled", "op": "Const", "attr": {"value": {"tensor": {"dtype": "DT_FLOAT", "tensorShape": {"dim": [{"size": "288"}]}}}, "dtype": {"type": "DT_FLOAT"}}}, {"name": "MobilenetV2/expanded_conv_12/depthwise/depthwise_weights", "op": "Const", "attr": {"dtype": {"type": "DT_FLOAT"}, "value": {"tensor": {"dtype": "DT_FLOAT", "tensorShape": {"dim": [{"size": "3"}, {"size": "3"}, {"size": "288"}, {"size": "1"}]}}}}}, {"name": "MobilenetV2/expanded_conv_12/expand/BatchNorm/FusedBatchNorm/Offset", "op": "Const", "attr": {"value": {"tensor": {"dtype": "DT_FLOAT", "tensorShape": {"dim": [{"size": "288"}]}}}, "dtype": {"type": "DT_FLOAT"}}}, {"name": "MobilenetV2/expanded_conv_12/expand/Conv2D/merged_input", "op": "Const", "attr": {"value": {"tensor": {"dtype": "DT_FLOAT", "tensorShape": {"dim": [{"size": "1"}, {"size": "1"}, {"size": "48"}, {"size": "288"}]}}}, "dtype": {"type": "DT_FLOAT"}}}, {"name": "MobilenetV2/expanded_conv_14/project/BatchNorm/FusedBatchNorm/Offset", "op": "Const", "attr": {"value": {"tensor": {"dtype": "DT_FLOAT", "tensorShape": {"dim": [{"size": "80"}]}}}, "dtype": {"type": "DT_FLOAT"}}}, {"name": "MobilenetV2/expanded_conv_14/project/Conv2D/merged_input", "op": "Const", "attr": {"value": {"tensor": {"dtype": "DT_FLOAT", "tensorShape": {"dim": [{"size": "1"}, {"size": "1"}, {"size": "480"}, {"size": "80"}]}}}, "dtype": {"type": "DT_FLOAT"}}}, {"name": "MobilenetV2/expanded_conv_14/depthwise/BatchNorm/FusedBatchNorm/Offset", "op": "Const", "attr": {"dtype": {"type": "DT_FLOAT"}, "value": {"tensor": {"dtype": "DT_FLOAT", "tensorShape": {"dim": [{"size": "480"}]}}}}}, {"name": "MobilenetV2/expanded_conv_14/depthwise/BatchNorm/FusedBatchNorm/Scaled", "op": "Const", "attr": {"value": {"tensor": {"dtype": "DT_FLOAT", "tensorShape": {"dim": [{"size": "480"}]}}}, "dtype": {"type": "DT_FLOAT"}}}, {"name": "MobilenetV2/expanded_conv_14/depthwise/depthwise_weights", "op": "Const", "attr": {"value": {"tensor": {"dtype": "DT_FLOAT", "tensorShape": {"dim": [{"size": "3"}, {"size": "3"}, {"size": "480"}, {"size": "1"}]}}}, "dtype": {"type": "DT_FLOAT"}}}, {"name": "MobilenetV2/expanded_conv_14/expand/BatchNorm/FusedBatchNorm/Offset", "op": "Const", "attr": {"value": {"tensor": {"dtype": "DT_FLOAT", "tensorShape": {"dim": [{"size": "480"}]}}}, "dtype": {"type": "DT_FLOAT"}}}, {"name": "MobilenetV2/expanded_conv_14/expand/Conv2D/merged_input", "op": "Const", "attr": {"value": {"tensor": {"dtype": "DT_FLOAT", "tensorShape": {"dim": [{"size": "1"}, {"size": "1"}, {"size": "80"}, {"size": "480"}]}}}, "dtype": {"type": "DT_FLOAT"}}}, {"name": "MobilenetV2/expanded_conv_15/project/BatchNorm/FusedBatchNorm/Offset", "op": "Const", "attr": {"value": {"tensor": {"dtype": "DT_FLOAT", "tensorShape": {"dim": [{"size": "80"}]}}}, "dtype": {"type": "DT_FLOAT"}}}, {"name": "MobilenetV2/expanded_conv_15/project/Conv2D/merged_input", "op": "Const", "attr": {"dtype": {"type": "DT_FLOAT"}, "value": {"tensor": {"dtype": "DT_FLOAT", "tensorShape": {"dim": [{"size": "1"}, {"size": "1"}, {"size": "480"}, {"size": "80"}]}}}}}, {"name": "MobilenetV2/expanded_conv_15/depthwise/BatchNorm/FusedBatchNorm/Offset", "op": "Const", "attr": {"value": {"tensor": {"dtype": "DT_FLOAT", "tensorShape": {"dim": [{"size": "480"}]}}}, "dtype": {"type": "DT_FLOAT"}}}, {"name": "MobilenetV2/expanded_conv_15/depthwise/BatchNorm/FusedBatchNorm/Scaled", "op": "Const", "attr": {"value": {"tensor": {"dtype": "DT_FLOAT", "tensorShape": {"dim": [{"size": "480"}]}}}, "dtype": {"type": "DT_FLOAT"}}}, {"name": "MobilenetV2/expanded_conv_15/depthwise/depthwise_weights", "op": "Const", "attr": {"value": {"tensor": {"dtype": "DT_FLOAT", "tensorShape": {"dim": [{"size": "3"}, {"size": "3"}, {"size": "480"}, {"size": "1"}]}}}, "dtype": {"type": "DT_FLOAT"}}}, {"name": "MobilenetV2/expanded_conv_15/expand/BatchNorm/FusedBatchNorm/Offset", "op": "Const", "attr": {"value": {"tensor": {"dtype": "DT_FLOAT", "tensorShape": {"dim": [{"size": "480"}]}}}, "dtype": {"type": "DT_FLOAT"}}}, {"name": "MobilenetV2/expanded_conv_15/expand/Conv2D/merged_input", "op": "Const", "attr": {"dtype": {"type": "DT_FLOAT"}, "value": {"tensor": {"dtype": "DT_FLOAT", "tensorShape": {"dim": [{"size": "1"}, {"size": "1"}, {"size": "80"}, {"size": "480"}]}}}}}, {"name": "image_pooling/BatchNorm/FusedBatchNorm/Offset", "op": "Const", "attr": {"dtype": {"type": "DT_FLOAT"}, "value": {"tensor": {"dtype": "DT_FLOAT", "tensorShape": {"dim": [{"size": "256"}]}}}}}, {"name": "image_pooling/Conv2D/merged_input", "op": "Const", "attr": {"value": {"tensor": {"dtype": "DT_FLOAT", "tensorShape": {"dim": [{"size": "1"}, {"size": "1"}, {"size": "160"}, {"size": "256"}]}}}, "dtype": {"type": "DT_FLOAT"}}}, {"name": "Shape", "op": "Shape", "input": ["ImageTensor"], "attr": {"T": {"type": "DT_UINT8"}, "out_type": {"type": "DT_INT32"}}}, {"name": "Squeeze", "op": "Squeeze", "input": ["ImageTensor"], "attr": {"T": {"type": "DT_UINT8"}, "squeeze_dims": {"list": {"i": ["0"]}}}}, {"name": "strided_slice", "op": "StridedSlice", "input": ["Shape", "strided_slice_2/stack", "strided_slice/stack_1", "strided_slice_2/stack"], "attr": {"shrink_axis_mask": {"i": "0"}, "ellipsis_mask": {"i": "0"}, "begin_mask": {"i": "0"}, "new_axis_mask": {"i": "0"}, "end_mask": {"i": "0"}, "T": {"type": "DT_INT32"}, "Index": {"type": "DT_INT32"}}}, {"name": "Shape_3", "op": "Shape", "input": ["Squeeze"], "attr": {"T": {"type": "DT_UINT8"}, "out_type": {"type": "DT_INT32"}}}, {"name": "Cast", "op": "Cast", "input": ["Squeeze"], "attr": {"SrcT": {"type": "DT_UINT8"}, "Truncate": {"b": false}, "DstT": {"type": "DT_FLOAT"}}}, {"name": "strided_slice_5", "op": "StridedSlice", "input": ["Shape_3", "strided_slice_1/stack", "strided_slice_2/stack_1", "strided_slice_2/stack"], "attr": {"shrink_axis_mask": {"i": "0"}, "begin_mask": {"i": "1"}, "ellipsis_mask": {"i": "0"}, "new_axis_mask": {"i": "0"}, "end_mask": {"i": "0"}, "Index": {"type": "DT_INT32"}, "T": {"type": "DT_INT32"}}}, {"name": "sub_2", "op": "Sub", "input": ["Cast", "Reshape"], "attr": {"T": {"type": "DT_FLOAT"}}}, {"name": "Shape_1", "op": "Shape", "input": ["Cast"], "attr": {"T": {"type": "DT_FLOAT"}, "out_type": {"type": "DT_INT32"}}}, {"name": "strided_slice_8", "op": "StridedSlice", "input": ["strided_slice_5", "strided_slice_2/stack", "strided_slice_2/stack_1", "strided_slice_2/stack"], "attr": {"shrink_axis_mask": {"i": "1"}, "ellipsis_mask": {"i": "0"}, "begin_mask": {"i": "0"}, "new_axis_mask": {"i": "0"}, "end_mask": {"i": "0"}, "Index": {"type": "DT_INT32"}, "T": {"type": "DT_INT32"}}}, {"name": "strided_slice_7", "op": "StridedSlice", "input": ["strided_slice_5", "strided_slice_1/stack", "strided_slice_2/stack", "strided_slice_2/stack"], "attr": {"shrink_axis_mask": {"i": "1"}, "begin_mask": {"i": "0"}, "ellipsis_mask": {"i": "0"}, "new_axis_mask": {"i": "0"}, "end_mask": {"i": "0"}, "Index": {"type": "DT_INT32"}, "T": {"type": "DT_INT32"}}}, {"name": "Shape_2", "op": "Shape", "input": ["sub_2"], "attr": {"T": {"type": "DT_FLOAT"}, "out_type": {"type": "DT_INT32"}}}, {"name": "strided_slice_2", "op": "StridedSlice", "input": ["Shape_1", "strided_slice_2/stack", "strided_slice_2/stack_1", "strided_slice_2/stack"], "attr": {"shrink_axis_mask": {"i": "1"}, "ellipsis_mask": {"i": "0"}, "begin_mask": {"i": "0"}, "new_axis_mask": {"i": "0"}, "end_mask": {"i": "0"}, "T": {"type": "DT_INT32"}, "Index": {"type": "DT_INT32"}}}, {"name": "strided_slice_1", "op": "StridedSlice", "input": ["Shape_1", "strided_slice_1/stack", "strided_slice_2/stack", "strided_slice_2/stack"], "attr": {"T": {"type": "DT_INT32"}, "Index": {"type": "DT_INT32"}, "shrink_axis_mask": {"i": "1"}, "begin_mask": {"i": "0"}, "ellipsis_mask": {"i": "0"}, "new_axis_mask": {"i": "0"}, "end_mask": {"i": "0"}}}, {"name": "Slice/size", "op": "Pack", "input": ["Slice/size/0", "strided_slice_7", "strided_slice_8"], "attr": {"T": {"type": "DT_INT32"}, "axis": {"i": "0"}, "N": {"i": "3"}}}, {"name": "strided_slice_4", "op": "StridedSlice", "input": ["Shape_2", "strided_slice_2/stack", "strided_slice_2/stack_1", "strided_slice_2/stack"], "attr": {"shrink_axis_mask": {"i": "1"}, "ellipsis_mask": {"i": "0"}, "begin_mask": {"i": "0"}, "new_axis_mask": {"i": "0"}, "end_mask": {"i": "0"}, "Index": {"type": "DT_INT32"}, "T": {"type": "DT_INT32"}}}, {"name": "strided_slice_3", "op": "StridedSlice", "input": ["Shape_2", "strided_slice_1/stack", "strided_slice_2/stack", "strided_slice_2/stack"], "attr": {"T": {"type": "DT_INT32"}, "Index": {"type": "DT_INT32"}, "shrink_axis_mask": {"i": "1"}, "ellipsis_mask": {"i": "0"}, "begin_mask": {"i": "0"}, "new_axis_mask": {"i": "0"}, "end_mask": {"i": "0"}}}, {"name": "sub_1", "op": "Sub", "input": ["sub_1/x", "strided_slice_2"], "attr": {"T": {"type": "DT_INT32"}}}, {"name": "sub", "op": "Sub", "input": ["sub_1/x", "strided_slice_1"], "attr": {"T": {"type": "DT_INT32"}}}, {"name": "Maximum_1", "op": "Maximum", "input": ["sub_1", "stack/0"], "attr": {"T": {"type": "DT_INT32"}}}, {"name": "Maximum", "op": "Maximum", "input": ["sub", "stack/0"], "attr": {"T": {"type": "DT_INT32"}}}, {"name": "add_1", "op": "Add", "input": ["strided_slice_2", "Maximum_1"], "attr": {"T": {"type": "DT_INT32"}}}, {"name": "add", "op": "Add", "input": ["strided_slice_1", "Maximum"], "attr": {"T": {"type": "DT_INT32"}}}, {"name": "sub_4", "op": "Sub", "input": ["add_1", "strided_slice_4"], "attr": {"T": {"type": "DT_INT32"}}}, {"name": "sub_6", "op": "Sub", "input": ["add", "strided_slice_3"], "attr": {"T": {"type": "DT_INT32"}}}, {"name": "stack_1", "op": "Pack", "input": ["stack/0", "sub_4"], "attr": {"T": {"type": "DT_INT32"}, "axis": {"i": "0"}, "N": {"i": "2"}}}, {"name": "stack", "op": "Pack", "input": ["stack/0", "sub_6"], "attr": {"T": {"type": "DT_INT32"}, "axis": {"i": "0"}, "N": {"i": "2"}}}, {"name": "stack_3", "op": "Pack", "input": ["stack", "stack_1", "stack_2"], "attr": {"T": {"type": "DT_INT32"}, "axis": {"i": "0"}, "N": {"i": "3"}}}, {"name": "Pad", "op": "Pad", "input": ["sub_2", "stack_3"], "attr": {"T": {"type": "DT_FLOAT"}, "Tpaddings": {"type": "DT_INT32"}}}, {"name": "add_2", "op": "Add", "input": ["Pad", "Reshape"], "attr": {"T": {"type": "DT_FLOAT"}}}, {"name": "ExpandDims", "op": "ExpandDims", "input": ["add_2", "stack/0"], "attr": {"Tdim": {"type": "DT_INT32"}, "T": {"type": "DT_FLOAT"}}}, {"name": "mul", "op": "Mul", "input": ["mul/x", "ExpandDims"], "attr": {"T": {"type": "DT_FLOAT"}}}, {"name": "sub_7", "op": "Sub", "input": ["mul", "sub_7/y"], "attr": {"T": {"type": "DT_FLOAT"}}}, {"name": "MobilenetV2/Conv/BatchNorm/FusedBatchNorm/Mul", "op": "Conv2D", "input": ["sub_7", "MobilenetV2/Conv/Conv2D/merged_input"], "attr": {"dilations": {"list": {"i": ["1", "1", "1", "1"]}}, "T": {"type": "DT_FLOAT"}, "strides": {"list": {"i": ["1", "2", "2", "1"]}}, "data_format": {"s": "TkhXQw=="}, "use_cudnn_on_gpu": {"b": true}, "padding": {"s": "U0FNRQ=="}}}, {"name": "MobilenetV2/Conv/BatchNorm/FusedBatchNorm", "op": "Add", "input": ["MobilenetV2/Conv/BatchNorm/FusedBatchNorm/Mul", "MobilenetV2/Conv/BatchNorm/FusedBatchNorm/Offset"], "attr": {"T": {"type": "DT_FLOAT"}}}, {"name": "MobilenetV2/Conv/Relu6", "op": "Relu6", "input": ["MobilenetV2/Conv/BatchNorm/FusedBatchNorm"], "attr": {"T": {"type": "DT_FLOAT"}}}, {"name": "MobilenetV2/expanded_conv/depthwise/depthwise", "op": "DepthwiseConv2dNative", "input": ["MobilenetV2/Conv/Relu6", "MobilenetV2/expanded_conv/depthwise/depthwise_weights"], "attr": {"data_format": {"s": "TkhXQw=="}, "strides": {"list": {"i": ["1", "1", "1", "1"]}}, "padding": {"s": "U0FNRQ=="}, "dilations": {"list": {"i": ["1", "1", "1", "1"]}}, "T": {"type": "DT_FLOAT"}}}, {"name": "MobilenetV2/expanded_conv/depthwise/BatchNorm/FusedBatchNorm/Mul", "op": "Mul", "input": ["MobilenetV2/expanded_conv/depthwise/depthwise", "MobilenetV2/expanded_conv/depthwise/BatchNorm/FusedBatchNorm/Scaled"], "attr": {"T": {"type": "DT_FLOAT"}}}, {"name": "MobilenetV2/expanded_conv/depthwise/BatchNorm/FusedBatchNorm", "op": "Add", "input": ["MobilenetV2/expanded_conv/depthwise/BatchNorm/FusedBatchNorm/Mul", "MobilenetV2/expanded_conv/depthwise/BatchNorm/FusedBatchNorm/Offset"], "attr": {"T": {"type": "DT_FLOAT"}}}, {"name": "MobilenetV2/expanded_conv/depthwise/Relu6", "op": "Relu6", "input": ["MobilenetV2/expanded_conv/depthwise/BatchNorm/FusedBatchNorm"], "attr": {"T": {"type": "DT_FLOAT"}}}, {"name": "MobilenetV2/expanded_conv/project/BatchNorm/FusedBatchNorm/Mul", "op": "Conv2D", "input": ["MobilenetV2/expanded_conv/depthwise/Relu6", "MobilenetV2/expanded_conv/project/Conv2D/merged_input"], "attr": {"padding": {"s": "U0FNRQ=="}, "dilations": {"list": {"i": ["1", "1", "1", "1"]}}, "T": {"type": "DT_FLOAT"}, "strides": {"list": {"i": ["1", "1", "1", "1"]}}, "data_format": {"s": "TkhXQw=="}, "use_cudnn_on_gpu": {"b": true}}}, {"name": "MobilenetV2/expanded_conv/project/BatchNorm/FusedBatchNorm", "op": "Add", "input": ["MobilenetV2/expanded_conv/project/BatchNorm/FusedBatchNorm/Mul", "MobilenetV2/expanded_conv/project/BatchNorm/FusedBatchNorm/Offset"], "attr": {"T": {"type": "DT_FLOAT"}}}, {"name": "MobilenetV2/expanded_conv_1/expand/BatchNorm/FusedBatchNorm/Mul", "op": "Conv2D", "input": ["MobilenetV2/expanded_conv/project/BatchNorm/FusedBatchNorm", "MobilenetV2/expanded_conv_1/expand/Conv2D/merged_input"], "attr": {"dilations": {"list": {"i": ["1", "1", "1", "1"]}}, "T": {"type": "DT_FLOAT"}, "strides": {"list": {"i": ["1", "1", "1", "1"]}}, "data_format": {"s": "TkhXQw=="}, "use_cudnn_on_gpu": {"b": true}, "padding": {"s": "U0FNRQ=="}}}, {"name": "MobilenetV2/expanded_conv_1/expand/BatchNorm/FusedBatchNorm", "op": "Add", "input": ["MobilenetV2/expanded_conv_1/expand/BatchNorm/FusedBatchNorm/Mul", "MobilenetV2/expanded_conv_1/expand/BatchNorm/FusedBatchNorm/Offset"], "attr": {"T": {"type": "DT_FLOAT"}}}, {"name": "MobilenetV2/expanded_conv_1/expand/Relu6", "op": "Relu6", "input": ["MobilenetV2/expanded_conv_1/expand/BatchNorm/FusedBatchNorm"], "attr": {"T": {"type": "DT_FLOAT"}}}, {"name": "MobilenetV2/expanded_conv_1/depthwise/depthwise", "op": "DepthwiseConv2dNative", "input": ["MobilenetV2/expanded_conv_1/expand/Relu6", "MobilenetV2/expanded_conv_1/depthwise/depthwise_weights"], "attr": {"dilations": {"list": {"i": ["1", "1", "1", "1"]}}, "padding": {"s": "U0FNRQ=="}, "T": {"type": "DT_FLOAT"}, "strides": {"list": {"i": ["1", "2", "2", "1"]}}, "data_format": {"s": "TkhXQw=="}}}, {"name": "MobilenetV2/expanded_conv_1/depthwise/BatchNorm/FusedBatchNorm/Mul", "op": "Mul", "input": ["MobilenetV2/expanded_conv_1/depthwise/depthwise", "MobilenetV2/expanded_conv_1/depthwise/BatchNorm/FusedBatchNorm/Scaled"], "attr": {"T": {"type": "DT_FLOAT"}}}, {"name": "MobilenetV2/expanded_conv_1/depthwise/BatchNorm/FusedBatchNorm", "op": "Add", "input": ["MobilenetV2/expanded_conv_1/depthwise/BatchNorm/FusedBatchNorm/Mul", "MobilenetV2/expanded_conv_1/depthwise/BatchNorm/FusedBatchNorm/Offset"], "attr": {"T": {"type": "DT_FLOAT"}}}, {"name": "MobilenetV2/expanded_conv_1/depthwise/Relu6", "op": "Relu6", "input": ["MobilenetV2/expanded_conv_1/depthwise/BatchNorm/FusedBatchNorm"], "attr": {"T": {"type": "DT_FLOAT"}}}, {"name": "MobilenetV2/expanded_conv_1/project/BatchNorm/FusedBatchNorm/Mul", "op": "Conv2D", "input": ["MobilenetV2/expanded_conv_1/depthwise/Relu6", "MobilenetV2/expanded_conv_1/project/Conv2D/merged_input"], "attr": {"dilations": {"list": {"i": ["1", "1", "1", "1"]}}, "T": {"type": "DT_FLOAT"}, "strides": {"list": {"i": ["1", "1", "1", "1"]}}, "data_format": {"s": "TkhXQw=="}, "use_cudnn_on_gpu": {"b": true}, "padding": {"s": "U0FNRQ=="}}}, {"name": "MobilenetV2/expanded_conv_1/project/BatchNorm/FusedBatchNorm", "op": "Add", "input": ["MobilenetV2/expanded_conv_1/project/BatchNorm/FusedBatchNorm/Mul", "MobilenetV2/expanded_conv_1/project/BatchNorm/FusedBatchNorm/Offset"], "attr": {"T": {"type": "DT_FLOAT"}}}, {"name": "MobilenetV2/expanded_conv_2/expand/BatchNorm/FusedBatchNorm/Mul", "op": "Conv2D", "input": ["MobilenetV2/expanded_conv_1/project/BatchNorm/FusedBatchNorm", "MobilenetV2/expanded_conv_2/expand/Conv2D/merged_input"], "attr": {"dilations": {"list": {"i": ["1", "1", "1", "1"]}}, "T": {"type": "DT_FLOAT"}, "data_format": {"s": "TkhXQw=="}, "strides": {"list": {"i": ["1", "1", "1", "1"]}}, "use_cudnn_on_gpu": {"b": true}, "padding": {"s": "U0FNRQ=="}}}, {"name": "MobilenetV2/expanded_conv_2/expand/BatchNorm/FusedBatchNorm", "op": "Add", "input": ["MobilenetV2/expanded_conv_2/expand/BatchNorm/FusedBatchNorm/Mul", "MobilenetV2/expanded_conv_2/expand/BatchNorm/FusedBatchNorm/Offset"], "attr": {"T": {"type": "DT_FLOAT"}}}, {"name": "MobilenetV2/expanded_conv_2/expand/Relu6", "op": "Relu6", "input": ["MobilenetV2/expanded_conv_2/expand/BatchNorm/FusedBatchNorm"], "attr": {"T": {"type": "DT_FLOAT"}}}, {"name": "MobilenetV2/expanded_conv_2/depthwise/depthwise", "op": "DepthwiseConv2dNative", "input": ["MobilenetV2/expanded_conv_2/expand/Relu6", "MobilenetV2/expanded_conv_2/depthwise/depthwise_weights"], "attr": {"padding": {"s": "U0FNRQ=="}, "dilations": {"list": {"i": ["1", "1", "1", "1"]}}, "T": {"type": "DT_FLOAT"}, "data_format": {"s": "TkhXQw=="}, "strides": {"list": {"i": ["1", "1", "1", "1"]}}}}, {"name": "MobilenetV2/expanded_conv_2/depthwise/BatchNorm/FusedBatchNorm/Mul", "op": "Mul", "input": ["MobilenetV2/expanded_conv_2/depthwise/depthwise", "MobilenetV2/expanded_conv_2/depthwise/BatchNorm/FusedBatchNorm/Scaled"], "attr": {"T": {"type": "DT_FLOAT"}}}, {"name": "MobilenetV2/expanded_conv_2/depthwise/BatchNorm/FusedBatchNorm", "op": "Add", "input": ["MobilenetV2/expanded_conv_2/depthwise/BatchNorm/FusedBatchNorm/Mul", "MobilenetV2/expanded_conv_2/depthwise/BatchNorm/FusedBatchNorm/Offset"], "attr": {"T": {"type": "DT_FLOAT"}}}, {"name": "MobilenetV2/expanded_conv_2/depthwise/Relu6", "op": "Relu6", "input": ["MobilenetV2/expanded_conv_2/depthwise/BatchNorm/FusedBatchNorm"], "attr": {"T": {"type": "DT_FLOAT"}}}, {"name": "MobilenetV2/expanded_conv_2/project/BatchNorm/FusedBatchNorm/Mul", "op": "Conv2D", "input": ["MobilenetV2/expanded_conv_2/depthwise/Relu6", "MobilenetV2/expanded_conv_2/project/Conv2D/merged_input"], "attr": {"dilations": {"list": {"i": ["1", "1", "1", "1"]}}, "T": {"type": "DT_FLOAT"}, "strides": {"list": {"i": ["1", "1", "1", "1"]}}, "data_format": {"s": "TkhXQw=="}, "use_cudnn_on_gpu": {"b": true}, "padding": {"s": "U0FNRQ=="}}}, {"name": "MobilenetV2/expanded_conv_2/ArithmeticOptimizer/AddOpsRewrite_Leaf_1_add", "op": "AddN", "input": ["MobilenetV2/expanded_conv_2/project/BatchNorm/FusedBatchNorm/Mul", "MobilenetV2/expanded_conv_1/project/BatchNorm/FusedBatchNorm"], "attr": {"T": {"type": "DT_FLOAT"}, "N": {"i": "2"}, "_grappler:ArithmeticOptimizer:AddOpsRewriteStage": {"b": true}}}, {"name": "MobilenetV2/expanded_conv_2/ArithmeticOptimizer/AddOpsRewrite_add", "op": "Add", "input": ["MobilenetV2/expanded_conv_2/project/BatchNorm/FusedBatchNorm/Offset", "MobilenetV2/expanded_conv_2/ArithmeticOptimizer/AddOpsRewrite_Leaf_1_add"], "attr": {"_grappler:ArithmeticOptimizer:AddOpsRewriteStage": {"b": true}, "T": {"type": "DT_FLOAT"}}}, {"name": "MobilenetV2/expanded_conv_3/expand/BatchNorm/FusedBatchNorm/Mul", "op": "Conv2D", "input": ["MobilenetV2/expanded_conv_2/ArithmeticOptimizer/AddOpsRewrite_add", "MobilenetV2/expanded_conv_3/expand/Conv2D/merged_input"], "attr": {"data_format": {"s": "TkhXQw=="}, "strides": {"list": {"i": ["1", "1", "1", "1"]}}, "use_cudnn_on_gpu": {"b": true}, "padding": {"s": "U0FNRQ=="}, "dilations": {"list": {"i": ["1", "1", "1", "1"]}}, "T": {"type": "DT_FLOAT"}}}, {"name": "MobilenetV2/expanded_conv_3/expand/BatchNorm/FusedBatchNorm", "op": "Add", "input": ["MobilenetV2/expanded_conv_3/expand/BatchNorm/FusedBatchNorm/Mul", "MobilenetV2/expanded_conv_3/expand/BatchNorm/FusedBatchNorm/Offset"], "attr": {"T": {"type": "DT_FLOAT"}}}, {"name": "MobilenetV2/expanded_conv_3/expand/Relu6", "op": "Relu6", "input": ["MobilenetV2/expanded_conv_3/expand/BatchNorm/FusedBatchNorm"], "attr": {"T": {"type": "DT_FLOAT"}}}, {"name": "MobilenetV2/expanded_conv_3/depthwise/depthwise", "op": "DepthwiseConv2dNative", "input": ["MobilenetV2/expanded_conv_3/expand/Relu6", "MobilenetV2/expanded_conv_3/depthwise/depthwise_weights"], "attr": {"padding": {"s": "U0FNRQ=="}, "dilations": {"list": {"i": ["1", "1", "1", "1"]}}, "T": {"type": "DT_FLOAT"}, "data_format": {"s": "TkhXQw=="}, "strides": {"list": {"i": ["1", "2", "2", "1"]}}}}, {"name": "MobilenetV2/expanded_conv_3/depthwise/BatchNorm/FusedBatchNorm/Mul", "op": "Mul", "input": ["MobilenetV2/expanded_conv_3/depthwise/depthwise", "MobilenetV2/expanded_conv_3/depthwise/BatchNorm/FusedBatchNorm/Scaled"], "attr": {"T": {"type": "DT_FLOAT"}}}, {"name": "MobilenetV2/expanded_conv_3/depthwise/BatchNorm/FusedBatchNorm", "op": "Add", "input": ["MobilenetV2/expanded_conv_3/depthwise/BatchNorm/FusedBatchNorm/Mul", "MobilenetV2/expanded_conv_3/depthwise/BatchNorm/FusedBatchNorm/Offset"], "attr": {"T": {"type": "DT_FLOAT"}}}, {"name": "MobilenetV2/expanded_conv_3/depthwise/Relu6", "op": "Relu6", "input": ["MobilenetV2/expanded_conv_3/depthwise/BatchNorm/FusedBatchNorm"], "attr": {"T": {"type": "DT_FLOAT"}}}, {"name": "MobilenetV2/expanded_conv_3/project/BatchNorm/FusedBatchNorm/Mul", "op": "Conv2D", "input": ["MobilenetV2/expanded_conv_3/depthwise/Relu6", "MobilenetV2/expanded_conv_3/project/Conv2D/merged_input"], "attr": {"T": {"type": "DT_FLOAT"}, "strides": {"list": {"i": ["1", "1", "1", "1"]}}, "data_format": {"s": "TkhXQw=="}, "use_cudnn_on_gpu": {"b": true}, "padding": {"s": "U0FNRQ=="}, "dilations": {"list": {"i": ["1", "1", "1", "1"]}}}}, {"name": "MobilenetV2/expanded_conv_3/project/BatchNorm/FusedBatchNorm", "op": "Add", "input": ["MobilenetV2/expanded_conv_3/project/BatchNorm/FusedBatchNorm/Mul", "MobilenetV2/expanded_conv_3/project/BatchNorm/FusedBatchNorm/Offset"], "attr": {"T": {"type": "DT_FLOAT"}}}, {"name": "MobilenetV2/expanded_conv_4/expand/BatchNorm/FusedBatchNorm/Mul", "op": "Conv2D", "input": ["MobilenetV2/expanded_conv_3/project/BatchNorm/FusedBatchNorm", "MobilenetV2/expanded_conv_4/expand/Conv2D/merged_input"], "attr": {"strides": {"list": {"i": ["1", "1", "1", "1"]}}, "data_format": {"s": "TkhXQw=="}, "use_cudnn_on_gpu": {"b": true}, "padding": {"s": "U0FNRQ=="}, "dilations": {"list": {"i": ["1", "1", "1", "1"]}}, "T": {"type": "DT_FLOAT"}}}, {"name": "MobilenetV2/expanded_conv_4/expand/BatchNorm/FusedBatchNorm", "op": "Add", "input": ["MobilenetV2/expanded_conv_4/expand/BatchNorm/FusedBatchNorm/Mul", "MobilenetV2/expanded_conv_4/expand/BatchNorm/FusedBatchNorm/Offset"], "attr": {"T": {"type": "DT_FLOAT"}}}, {"name": "MobilenetV2/expanded_conv_4/expand/Relu6", "op": "Relu6", "input": ["MobilenetV2/expanded_conv_4/expand/BatchNorm/FusedBatchNorm"], "attr": {"T": {"type": "DT_FLOAT"}}}, {"name": "MobilenetV2/expanded_conv_4/depthwise/depthwise", "op": "DepthwiseConv2dNative", "input": ["MobilenetV2/expanded_conv_4/expand/Relu6", "MobilenetV2/expanded_conv_4/depthwise/depthwise_weights"], "attr": {"strides": {"list": {"i": ["1", "1", "1", "1"]}}, "data_format": {"s": "TkhXQw=="}, "padding": {"s": "U0FNRQ=="}, "dilations": {"list": {"i": ["1", "1", "1", "1"]}}, "T": {"type": "DT_FLOAT"}}}, {"name": "MobilenetV2/expanded_conv_4/depthwise/BatchNorm/FusedBatchNorm/Mul", "op": "Mul", "input": ["MobilenetV2/expanded_conv_4/depthwise/depthwise", "MobilenetV2/expanded_conv_4/depthwise/BatchNorm/FusedBatchNorm/Scaled"], "attr": {"T": {"type": "DT_FLOAT"}}}, {"name": "MobilenetV2/expanded_conv_4/depthwise/BatchNorm/FusedBatchNorm", "op": "Add", "input": ["MobilenetV2/expanded_conv_4/depthwise/BatchNorm/FusedBatchNorm/Mul", "MobilenetV2/expanded_conv_4/depthwise/BatchNorm/FusedBatchNorm/Offset"], "attr": {"T": {"type": "DT_FLOAT"}}}, {"name": "MobilenetV2/expanded_conv_4/depthwise/Relu6", "op": "Relu6", "input": ["MobilenetV2/expanded_conv_4/depthwise/BatchNorm/FusedBatchNorm"], "attr": {"T": {"type": "DT_FLOAT"}}}, {"name": "MobilenetV2/expanded_conv_4/project/BatchNorm/FusedBatchNorm/Mul", "op": "Conv2D", "input": ["MobilenetV2/expanded_conv_4/depthwise/Relu6", "MobilenetV2/expanded_conv_4/project/Conv2D/merged_input"], "attr": {"dilations": {"list": {"i": ["1", "1", "1", "1"]}}, "T": {"type": "DT_FLOAT"}, "data_format": {"s": "TkhXQw=="}, "strides": {"list": {"i": ["1", "1", "1", "1"]}}, "use_cudnn_on_gpu": {"b": true}, "padding": {"s": "U0FNRQ=="}}}, {"name": "MobilenetV2/expanded_conv_4/ArithmeticOptimizer/AddOpsRewrite_Leaf_1_add", "op": "AddN", "input": ["MobilenetV2/expanded_conv_4/project/BatchNorm/FusedBatchNorm/Mul", "MobilenetV2/expanded_conv_3/project/BatchNorm/FusedBatchNorm"], "attr": {"N": {"i": "2"}, "_grappler:ArithmeticOptimizer:AddOpsRewriteStage": {"b": true}, "T": {"type": "DT_FLOAT"}}}, {"name": "MobilenetV2/expanded_conv_4/ArithmeticOptimizer/AddOpsRewrite_add", "op": "Add", "input": ["MobilenetV2/expanded_conv_4/project/BatchNorm/FusedBatchNorm/Offset", "MobilenetV2/expanded_conv_4/ArithmeticOptimizer/AddOpsRewrite_Leaf_1_add"], "attr": {"T": {"type": "DT_FLOAT"}, "_grappler:ArithmeticOptimizer:AddOpsRewriteStage": {"b": true}}}, {"name": "MobilenetV2/expanded_conv_5/expand/BatchNorm/FusedBatchNorm/Mul", "op": "Conv2D", "input": ["MobilenetV2/expanded_conv_4/ArithmeticOptimizer/AddOpsRewrite_add", "MobilenetV2/expanded_conv_5/expand/Conv2D/merged_input"], "attr": {"dilations": {"list": {"i": ["1", "1", "1", "1"]}}, "T": {"type": "DT_FLOAT"}, "strides": {"list": {"i": ["1", "1", "1", "1"]}}, "data_format": {"s": "TkhXQw=="}, "use_cudnn_on_gpu": {"b": true}, "padding": {"s": "U0FNRQ=="}}}, {"name": "MobilenetV2/expanded_conv_5/expand/BatchNorm/FusedBatchNorm", "op": "Add", "input": ["MobilenetV2/expanded_conv_5/expand/BatchNorm/FusedBatchNorm/Mul", "MobilenetV2/expanded_conv_5/expand/BatchNorm/FusedBatchNorm/Offset"], "attr": {"T": {"type": "DT_FLOAT"}}}, {"name": "MobilenetV2/expanded_conv_5/expand/Relu6", "op": "Relu6", "input": ["MobilenetV2/expanded_conv_5/expand/BatchNorm/FusedBatchNorm"], "attr": {"T": {"type": "DT_FLOAT"}}}, {"name": "MobilenetV2/expanded_conv_5/depthwise/depthwise", "op": "DepthwiseConv2dNative", "input": ["MobilenetV2/expanded_conv_5/expand/Relu6", "MobilenetV2/expanded_conv_5/depthwise/depthwise_weights"], "attr": {"dilations": {"list": {"i": ["1", "1", "1", "1"]}}, "padding": {"s": "U0FNRQ=="}, "T": {"type": "DT_FLOAT"}, "data_format": {"s": "TkhXQw=="}, "strides": {"list": {"i": ["1", "1", "1", "1"]}}}}, {"name": "MobilenetV2/expanded_conv_5/depthwise/BatchNorm/FusedBatchNorm/Mul", "op": "Mul", "input": ["MobilenetV2/expanded_conv_5/depthwise/depthwise", "MobilenetV2/expanded_conv_5/depthwise/BatchNorm/FusedBatchNorm/Scaled"], "attr": {"T": {"type": "DT_FLOAT"}}}, {"name": "MobilenetV2/expanded_conv_5/depthwise/BatchNorm/FusedBatchNorm", "op": "Add", "input": ["MobilenetV2/expanded_conv_5/depthwise/BatchNorm/FusedBatchNorm/Mul", "MobilenetV2/expanded_conv_5/depthwise/BatchNorm/FusedBatchNorm/Offset"], "attr": {"T": {"type": "DT_FLOAT"}}}, {"name": "MobilenetV2/expanded_conv_5/depthwise/Relu6", "op": "Relu6", "input": ["MobilenetV2/expanded_conv_5/depthwise/BatchNorm/FusedBatchNorm"], "attr": {"T": {"type": "DT_FLOAT"}}}, {"name": "MobilenetV2/expanded_conv_5/project/BatchNorm/FusedBatchNorm/Mul", "op": "Conv2D", "input": ["MobilenetV2/expanded_conv_5/depthwise/Relu6", "MobilenetV2/expanded_conv_5/project/Conv2D/merged_input"], "attr": {"dilations": {"list": {"i": ["1", "1", "1", "1"]}}, "T": {"type": "DT_FLOAT"}, "strides": {"list": {"i": ["1", "1", "1", "1"]}}, "data_format": {"s": "TkhXQw=="}, "use_cudnn_on_gpu": {"b": true}, "padding": {"s": "U0FNRQ=="}}}, {"name": "MobilenetV2/expanded_conv_5/ArithmeticOptimizer/AddOpsRewrite_Leaf_1_add", "op": "AddN", "input": ["MobilenetV2/expanded_conv_5/project/BatchNorm/FusedBatchNorm/Mul", "MobilenetV2/expanded_conv_4/ArithmeticOptimizer/AddOpsRewrite_add"], "attr": {"N": {"i": "2"}, "_grappler:ArithmeticOptimizer:AddOpsRewriteStage": {"b": true}, "T": {"type": "DT_FLOAT"}}}, {"name": "MobilenetV2/expanded_conv_5/ArithmeticOptimizer/AddOpsRewrite_add", "op": "Add", "input": ["MobilenetV2/expanded_conv_5/project/BatchNorm/FusedBatchNorm/Offset", "MobilenetV2/expanded_conv_5/ArithmeticOptimizer/AddOpsRewrite_Leaf_1_add"], "attr": {"_grappler:ArithmeticOptimizer:AddOpsRewriteStage": {"b": true}, "T": {"type": "DT_FLOAT"}}}, {"name": "MobilenetV2/expanded_conv_6/expand/BatchNorm/FusedBatchNorm/Mul", "op": "Conv2D", "input": ["MobilenetV2/expanded_conv_5/ArithmeticOptimizer/AddOpsRewrite_add", "MobilenetV2/expanded_conv_6/expand/Conv2D/merged_input"], "attr": {"dilations": {"list": {"i": ["1", "1", "1", "1"]}}, "T": {"type": "DT_FLOAT"}, "strides": {"list": {"i": ["1", "1", "1", "1"]}}, "data_format": {"s": "TkhXQw=="}, "use_cudnn_on_gpu": {"b": true}, "padding": {"s": "U0FNRQ=="}}}, {"name": "MobilenetV2/expanded_conv_6/expand/BatchNorm/FusedBatchNorm", "op": "Add", "input": ["MobilenetV2/expanded_conv_6/expand/BatchNorm/FusedBatchNorm/Mul", "MobilenetV2/expanded_conv_6/expand/BatchNorm/FusedBatchNorm/Offset"], "attr": {"T": {"type": "DT_FLOAT"}}}, {"name": "MobilenetV2/expanded_conv_6/expand/Relu6", "op": "Relu6", "input": ["MobilenetV2/expanded_conv_6/expand/BatchNorm/FusedBatchNorm"], "attr": {"T": {"type": "DT_FLOAT"}}}, {"name": "MobilenetV2/expanded_conv_6/depthwise/depthwise", "op": "DepthwiseConv2dNative", "input": ["MobilenetV2/expanded_conv_6/expand/Relu6", "MobilenetV2/expanded_conv_6/depthwise/depthwise_weights"], "attr": {"padding": {"s": "U0FNRQ=="}, "dilations": {"list": {"i": ["1", "1", "1", "1"]}}, "T": {"type": "DT_FLOAT"}, "data_format": {"s": "TkhXQw=="}, "strides": {"list": {"i": ["1", "1", "1", "1"]}}}}, {"name": "MobilenetV2/expanded_conv_6/depthwise/BatchNorm/FusedBatchNorm/Mul", "op": "Mul", "input": ["MobilenetV2/expanded_conv_6/depthwise/depthwise", "MobilenetV2/expanded_conv_6/depthwise/BatchNorm/FusedBatchNorm/Scaled"], "attr": {"T": {"type": "DT_FLOAT"}}}, {"name": "MobilenetV2/expanded_conv_6/depthwise/BatchNorm/FusedBatchNorm", "op": "Add", "input": ["MobilenetV2/expanded_conv_6/depthwise/BatchNorm/FusedBatchNorm/Mul", "MobilenetV2/expanded_conv_6/depthwise/BatchNorm/FusedBatchNorm/Offset"], "attr": {"T": {"type": "DT_FLOAT"}}}, {"name": "MobilenetV2/expanded_conv_6/depthwise/Relu6", "op": "Relu6", "input": ["MobilenetV2/expanded_conv_6/depthwise/BatchNorm/FusedBatchNorm"], "attr": {"T": {"type": "DT_FLOAT"}}}, {"name": "MobilenetV2/expanded_conv_6/project/BatchNorm/FusedBatchNorm/Mul", "op": "Conv2D", "input": ["MobilenetV2/expanded_conv_6/depthwise/Relu6", "MobilenetV2/expanded_conv_6/project/Conv2D/merged_input"], "attr": {"dilations": {"list": {"i": ["1", "1", "1", "1"]}}, "T": {"type": "DT_FLOAT"}, "strides": {"list": {"i": ["1", "1", "1", "1"]}}, "data_format": {"s": "TkhXQw=="}, "use_cudnn_on_gpu": {"b": true}, "padding": {"s": "U0FNRQ=="}}}, {"name": "MobilenetV2/expanded_conv_6/project/BatchNorm/FusedBatchNorm", "op": "Add", "input": ["MobilenetV2/expanded_conv_6/project/BatchNorm/FusedBatchNorm/Mul", "MobilenetV2/expanded_conv_6/project/BatchNorm/FusedBatchNorm/Offset"], "attr": {"T": {"type": "DT_FLOAT"}}}, {"name": "MobilenetV2/expanded_conv_7/expand/BatchNorm/FusedBatchNorm/Mul", "op": "Conv2D", "input": ["MobilenetV2/expanded_conv_6/project/BatchNorm/FusedBatchNorm", "MobilenetV2/expanded_conv_7/expand/Conv2D/merged_input"], "attr": {"dilations": {"list": {"i": ["1", "1", "1", "1"]}}, "T": {"type": "DT_FLOAT"}, "data_format": {"s": "TkhXQw=="}, "strides": {"list": {"i": ["1", "1", "1", "1"]}}, "use_cudnn_on_gpu": {"b": true}, "padding": {"s": "U0FNRQ=="}}}, {"name": "MobilenetV2/expanded_conv_7/expand/BatchNorm/FusedBatchNorm", "op": "Add", "input": ["MobilenetV2/expanded_conv_7/expand/BatchNorm/FusedBatchNorm/Mul", "MobilenetV2/expanded_conv_7/expand/BatchNorm/FusedBatchNorm/Offset"], "attr": {"T": {"type": "DT_FLOAT"}}}, {"name": "MobilenetV2/expanded_conv_7/expand/Relu6", "op": "Relu6", "input": ["MobilenetV2/expanded_conv_7/expand/BatchNorm/FusedBatchNorm"], "attr": {"T": {"type": "DT_FLOAT"}}}, {"name": "MobilenetV2/expanded_conv_7/depthwise/depthwise/SpaceToBatchND", "op": "SpaceToBatchND", "input": ["MobilenetV2/expanded_conv_7/expand/Relu6", "MobilenetV2/expanded_conv_12/depthwise/depthwise/SpaceToBatchND/block_shape", "MobilenetV2/expanded_conv_12/depthwise/depthwise/SpaceToBatchND/paddings"], "attr": {"T": {"type": "DT_FLOAT"}, "Tpaddings": {"type": "DT_INT32"}, "Tblock_shape": {"type": "DT_INT32"}}}, {"name": "MobilenetV2/expanded_conv_7/depthwise/depthwise", "op": "DepthwiseConv2dNative", "input": ["MobilenetV2/expanded_conv_7/depthwise/depthwise/SpaceToBatchND", "MobilenetV2/expanded_conv_7/depthwise/depthwise_weights"], "attr": {"data_format": {"s": "TkhXQw=="}, "strides": {"list": {"i": ["1", "1", "1", "1"]}}, "padding": {"s": "VkFMSUQ="}, "dilations": {"list": {"i": ["1", "1", "1", "1"]}}, "T": {"type": "DT_FLOAT"}}}, {"name": "MobilenetV2/expanded_conv_7/depthwise/depthwise/BatchToSpaceND", "op": "BatchToSpaceND", "input": ["MobilenetV2/expanded_conv_7/depthwise/depthwise", "MobilenetV2/expanded_conv_12/depthwise/depthwise/SpaceToBatchND/block_shape", "MobilenetV2/expanded_conv_12/depthwise/depthwise/BatchToSpaceND/crops"], "attr": {"Tcrops": {"type": "DT_INT32"}, "T": {"type": "DT_FLOAT"}, "Tblock_shape": {"type": "DT_INT32"}}}, {"name": "MobilenetV2/expanded_conv_7/depthwise/BatchNorm/FusedBatchNorm/Mul", "op": "Mul", "input": ["MobilenetV2/expanded_conv_7/depthwise/depthwise/BatchToSpaceND", "MobilenetV2/expanded_conv_7/depthwise/BatchNorm/FusedBatchNorm/Scaled"], "attr": {"T": {"type": "DT_FLOAT"}}}, {"name": "MobilenetV2/expanded_conv_7/depthwise/BatchNorm/FusedBatchNorm", "op": "Add", "input": ["MobilenetV2/expanded_conv_7/depthwise/BatchNorm/FusedBatchNorm/Mul", "MobilenetV2/expanded_conv_7/depthwise/BatchNorm/FusedBatchNorm/Offset"], "attr": {"T": {"type": "DT_FLOAT"}}}, {"name": "MobilenetV2/expanded_conv_7/depthwise/Relu6", "op": "Relu6", "input": ["MobilenetV2/expanded_conv_7/depthwise/BatchNorm/FusedBatchNorm"], "attr": {"T": {"type": "DT_FLOAT"}}}, {"name": "MobilenetV2/expanded_conv_7/project/BatchNorm/FusedBatchNorm/Mul", "op": "Conv2D", "input": ["MobilenetV2/expanded_conv_7/depthwise/Relu6", "MobilenetV2/expanded_conv_7/project/Conv2D/merged_input"], "attr": {"use_cudnn_on_gpu": {"b": true}, "padding": {"s": "U0FNRQ=="}, "dilations": {"list": {"i": ["1", "1", "1", "1"]}}, "T": {"type": "DT_FLOAT"}, "strides": {"list": {"i": ["1", "1", "1", "1"]}}, "data_format": {"s": "TkhXQw=="}}}, {"name": "MobilenetV2/expanded_conv_7/project/BatchNorm/FusedBatchNorm", "op": "Add", "input": ["MobilenetV2/expanded_conv_7/project/BatchNorm/FusedBatchNorm/Mul", "MobilenetV2/expanded_conv_7/project/BatchNorm/FusedBatchNorm/Offset"], "attr": {"T": {"type": "DT_FLOAT"}}}, {"name": "MobilenetV2/expanded_conv_7/add", "op": "Add", "input": ["MobilenetV2/expanded_conv_7/project/BatchNorm/FusedBatchNorm", "MobilenetV2/expanded_conv_6/project/BatchNorm/FusedBatchNorm"], "attr": {"T": {"type": "DT_FLOAT"}}}, {"name": "MobilenetV2/expanded_conv_8/expand/BatchNorm/FusedBatchNorm/Mul", "op": "Conv2D", "input": ["MobilenetV2/expanded_conv_7/add", "MobilenetV2/expanded_conv_8/expand/Conv2D/merged_input"], "attr": {"dilations": {"list": {"i": ["1", "1", "1", "1"]}}, "T": {"type": "DT_FLOAT"}, "data_format": {"s": "TkhXQw=="}, "strides": {"list": {"i": ["1", "1", "1", "1"]}}, "use_cudnn_on_gpu": {"b": true}, "padding": {"s": "U0FNRQ=="}}}, {"name": "MobilenetV2/expanded_conv_8/expand/BatchNorm/FusedBatchNorm", "op": "Add", "input": ["MobilenetV2/expanded_conv_8/expand/BatchNorm/FusedBatchNorm/Mul", "MobilenetV2/expanded_conv_8/expand/BatchNorm/FusedBatchNorm/Offset"], "attr": {"T": {"type": "DT_FLOAT"}}}, {"name": "MobilenetV2/expanded_conv_8/expand/Relu6", "op": "Relu6", "input": ["MobilenetV2/expanded_conv_8/expand/BatchNorm/FusedBatchNorm"], "attr": {"T": {"type": "DT_FLOAT"}}}, {"name": "MobilenetV2/expanded_conv_8/depthwise/depthwise/SpaceToBatchND", "op": "SpaceToBatchND", "input": ["MobilenetV2/expanded_conv_8/expand/Relu6", "MobilenetV2/expanded_conv_12/depthwise/depthwise/SpaceToBatchND/block_shape", "MobilenetV2/expanded_conv_12/depthwise/depthwise/SpaceToBatchND/paddings"], "attr": {"Tblock_shape": {"type": "DT_INT32"}, "T": {"type": "DT_FLOAT"}, "Tpaddings": {"type": "DT_INT32"}}}, {"name": "MobilenetV2/expanded_conv_8/depthwise/depthwise", "op": "DepthwiseConv2dNative", "input": ["MobilenetV2/expanded_conv_8/depthwise/depthwise/SpaceToBatchND", "MobilenetV2/expanded_conv_8/depthwise/depthwise_weights"], "attr": {"dilations": {"list": {"i": ["1", "1", "1", "1"]}}, "padding": {"s": "VkFMSUQ="}, "T": {"type": "DT_FLOAT"}, "strides": {"list": {"i": ["1", "1", "1", "1"]}}, "data_format": {"s": "TkhXQw=="}}}, {"name": "MobilenetV2/expanded_conv_8/depthwise/depthwise/BatchToSpaceND", "op": "BatchToSpaceND", "input": ["MobilenetV2/expanded_conv_8/depthwise/depthwise", "MobilenetV2/expanded_conv_12/depthwise/depthwise/SpaceToBatchND/block_shape", "MobilenetV2/expanded_conv_12/depthwise/depthwise/BatchToSpaceND/crops"], "attr": {"Tcrops": {"type": "DT_INT32"}, "T": {"type": "DT_FLOAT"}, "Tblock_shape": {"type": "DT_INT32"}}}, {"name": "MobilenetV2/expanded_conv_8/depthwise/BatchNorm/FusedBatchNorm/Mul", "op": "Mul", "input": ["MobilenetV2/expanded_conv_8/depthwise/depthwise/BatchToSpaceND", "MobilenetV2/expanded_conv_8/depthwise/BatchNorm/FusedBatchNorm/Scaled"], "attr": {"T": {"type": "DT_FLOAT"}}}, {"name": "MobilenetV2/expanded_conv_8/depthwise/BatchNorm/FusedBatchNorm", "op": "Add", "input": ["MobilenetV2/expanded_conv_8/depthwise/BatchNorm/FusedBatchNorm/Mul", "MobilenetV2/expanded_conv_8/depthwise/BatchNorm/FusedBatchNorm/Offset"], "attr": {"T": {"type": "DT_FLOAT"}}}, {"name": "MobilenetV2/expanded_conv_8/depthwise/Relu6", "op": "Relu6", "input": ["MobilenetV2/expanded_conv_8/depthwise/BatchNorm/FusedBatchNorm"], "attr": {"T": {"type": "DT_FLOAT"}}}, {"name": "MobilenetV2/expanded_conv_8/project/BatchNorm/FusedBatchNorm/Mul", "op": "Conv2D", "input": ["MobilenetV2/expanded_conv_8/depthwise/Relu6", "MobilenetV2/expanded_conv_8/project/Conv2D/merged_input"], "attr": {"dilations": {"list": {"i": ["1", "1", "1", "1"]}}, "T": {"type": "DT_FLOAT"}, "data_format": {"s": "TkhXQw=="}, "strides": {"list": {"i": ["1", "1", "1", "1"]}}, "use_cudnn_on_gpu": {"b": true}, "padding": {"s": "U0FNRQ=="}}}, {"name": "MobilenetV2/expanded_conv_8/project/BatchNorm/FusedBatchNorm", "op": "Add", "input": ["MobilenetV2/expanded_conv_8/project/BatchNorm/FusedBatchNorm/Mul", "MobilenetV2/expanded_conv_8/project/BatchNorm/FusedBatchNorm/Offset"], "attr": {"T": {"type": "DT_FLOAT"}}}, {"name": "MobilenetV2/expanded_conv_8/add", "op": "Add", "input": ["MobilenetV2/expanded_conv_8/project/BatchNorm/FusedBatchNorm", "MobilenetV2/expanded_conv_7/add"], "attr": {"T": {"type": "DT_FLOAT"}}}, {"name": "MobilenetV2/expanded_conv_9/expand/BatchNorm/FusedBatchNorm/Mul", "op": "Conv2D", "input": ["MobilenetV2/expanded_conv_8/add", "MobilenetV2/expanded_conv_9/expand/Conv2D/merged_input"], "attr": {"use_cudnn_on_gpu": {"b": true}, "padding": {"s": "U0FNRQ=="}, "dilations": {"list": {"i": ["1", "1", "1", "1"]}}, "T": {"type": "DT_FLOAT"}, "data_format": {"s": "TkhXQw=="}, "strides": {"list": {"i": ["1", "1", "1", "1"]}}}}, {"name": "MobilenetV2/expanded_conv_9/expand/BatchNorm/FusedBatchNorm", "op": "Add", "input": ["MobilenetV2/expanded_conv_9/expand/BatchNorm/FusedBatchNorm/Mul", "MobilenetV2/expanded_conv_9/expand/BatchNorm/FusedBatchNorm/Offset"], "attr": {"T": {"type": "DT_FLOAT"}}}, {"name": "MobilenetV2/expanded_conv_9/expand/Relu6", "op": "Relu6", "input": ["MobilenetV2/expanded_conv_9/expand/BatchNorm/FusedBatchNorm"], "attr": {"T": {"type": "DT_FLOAT"}}}, {"name": "MobilenetV2/expanded_conv_9/depthwise/depthwise/SpaceToBatchND", "op": "SpaceToBatchND", "input": ["MobilenetV2/expanded_conv_9/expand/Relu6", "MobilenetV2/expanded_conv_12/depthwise/depthwise/SpaceToBatchND/block_shape", "MobilenetV2/expanded_conv_12/depthwise/depthwise/SpaceToBatchND/paddings"], "attr": {"T": {"type": "DT_FLOAT"}, "Tpaddings": {"type": "DT_INT32"}, "Tblock_shape": {"type": "DT_INT32"}}}, {"name": "MobilenetV2/expanded_conv_9/depthwise/depthwise", "op": "DepthwiseConv2dNative", "input": ["MobilenetV2/expanded_conv_9/depthwise/depthwise/SpaceToBatchND", "MobilenetV2/expanded_conv_9/depthwise/depthwise_weights"], "attr": {"padding": {"s": "VkFMSUQ="}, "dilations": {"list": {"i": ["1", "1", "1", "1"]}}, "T": {"type": "DT_FLOAT"}, "strides": {"list": {"i": ["1", "1", "1", "1"]}}, "data_format": {"s": "TkhXQw=="}}}, {"name": "MobilenetV2/expanded_conv_9/depthwise/depthwise/BatchToSpaceND", "op": "BatchToSpaceND", "input": ["MobilenetV2/expanded_conv_9/depthwise/depthwise", "MobilenetV2/expanded_conv_12/depthwise/depthwise/SpaceToBatchND/block_shape", "MobilenetV2/expanded_conv_12/depthwise/depthwise/BatchToSpaceND/crops"], "attr": {"Tblock_shape": {"type": "DT_INT32"}, "Tcrops": {"type": "DT_INT32"}, "T": {"type": "DT_FLOAT"}}}, {"name": "MobilenetV2/expanded_conv_9/depthwise/BatchNorm/FusedBatchNorm/Mul", "op": "Mul", "input": ["MobilenetV2/expanded_conv_9/depthwise/depthwise/BatchToSpaceND", "MobilenetV2/expanded_conv_9/depthwise/BatchNorm/FusedBatchNorm/Scaled"], "attr": {"T": {"type": "DT_FLOAT"}}}, {"name": "MobilenetV2/expanded_conv_9/depthwise/BatchNorm/FusedBatchNorm", "op": "Add", "input": ["MobilenetV2/expanded_conv_9/depthwise/BatchNorm/FusedBatchNorm/Mul", "MobilenetV2/expanded_conv_9/depthwise/BatchNorm/FusedBatchNorm/Offset"], "attr": {"T": {"type": "DT_FLOAT"}}}, {"name": "MobilenetV2/expanded_conv_9/depthwise/Relu6", "op": "Relu6", "input": ["MobilenetV2/expanded_conv_9/depthwise/BatchNorm/FusedBatchNorm"], "attr": {"T": {"type": "DT_FLOAT"}}}, {"name": "MobilenetV2/expanded_conv_9/project/BatchNorm/FusedBatchNorm/Mul", "op": "Conv2D", "input": ["MobilenetV2/expanded_conv_9/depthwise/Relu6", "MobilenetV2/expanded_conv_9/project/Conv2D/merged_input"], "attr": {"dilations": {"list": {"i": ["1", "1", "1", "1"]}}, "T": {"type": "DT_FLOAT"}, "strides": {"list": {"i": ["1", "1", "1", "1"]}}, "data_format": {"s": "TkhXQw=="}, "use_cudnn_on_gpu": {"b": true}, "padding": {"s": "U0FNRQ=="}}}, {"name": "MobilenetV2/expanded_conv_9/project/BatchNorm/FusedBatchNorm", "op": "Add", "input": ["MobilenetV2/expanded_conv_9/project/BatchNorm/FusedBatchNorm/Mul", "MobilenetV2/expanded_conv_9/project/BatchNorm/FusedBatchNorm/Offset"], "attr": {"T": {"type": "DT_FLOAT"}}}, {"name": "MobilenetV2/expanded_conv_9/add", "op": "Add", "input": ["MobilenetV2/expanded_conv_9/project/BatchNorm/FusedBatchNorm", "MobilenetV2/expanded_conv_8/add"], "attr": {"T": {"type": "DT_FLOAT"}}}, {"name": "MobilenetV2/expanded_conv_10/expand/BatchNorm/FusedBatchNorm/Mul", "op": "Conv2D", "input": ["MobilenetV2/expanded_conv_9/add", "MobilenetV2/expanded_conv_10/expand/Conv2D/merged_input"], "attr": {"data_format": {"s": "TkhXQw=="}, "strides": {"list": {"i": ["1", "1", "1", "1"]}}, "use_cudnn_on_gpu": {"b": true}, "padding": {"s": "U0FNRQ=="}, "dilations": {"list": {"i": ["1", "1", "1", "1"]}}, "T": {"type": "DT_FLOAT"}}}, {"name": "MobilenetV2/expanded_conv_10/expand/BatchNorm/FusedBatchNorm", "op": "Add", "input": ["MobilenetV2/expanded_conv_10/expand/BatchNorm/FusedBatchNorm/Mul", "MobilenetV2/expanded_conv_10/expand/BatchNorm/FusedBatchNorm/Offset"], "attr": {"T": {"type": "DT_FLOAT"}}}, {"name": "MobilenetV2/expanded_conv_10/expand/Relu6", "op": "Relu6", "input": ["MobilenetV2/expanded_conv_10/expand/BatchNorm/FusedBatchNorm"], "attr": {"T": {"type": "DT_FLOAT"}}}, {"name": "MobilenetV2/expanded_conv_10/depthwise/depthwise/SpaceToBatchND", "op": "SpaceToBatchND", "input": ["MobilenetV2/expanded_conv_10/expand/Relu6", "MobilenetV2/expanded_conv_12/depthwise/depthwise/SpaceToBatchND/block_shape", "MobilenetV2/expanded_conv_12/depthwise/depthwise/SpaceToBatchND/paddings"], "attr": {"T": {"type": "DT_FLOAT"}, "Tpaddings": {"type": "DT_INT32"}, "Tblock_shape": {"type": "DT_INT32"}}}, {"name": "MobilenetV2/expanded_conv_10/depthwise/depthwise", "op": "DepthwiseConv2dNative", "input": ["MobilenetV2/expanded_conv_10/depthwise/depthwise/SpaceToBatchND", "MobilenetV2/expanded_conv_10/depthwise/depthwise_weights"], "attr": {"padding": {"s": "VkFMSUQ="}, "dilations": {"list": {"i": ["1", "1", "1", "1"]}}, "T": {"type": "DT_FLOAT"}, "strides": {"list": {"i": ["1", "1", "1", "1"]}}, "data_format": {"s": "TkhXQw=="}}}, {"name": "MobilenetV2/expanded_conv_10/depthwise/depthwise/BatchToSpaceND", "op": "BatchToSpaceND", "input": ["MobilenetV2/expanded_conv_10/depthwise/depthwise", "MobilenetV2/expanded_conv_12/depthwise/depthwise/SpaceToBatchND/block_shape", "MobilenetV2/expanded_conv_12/depthwise/depthwise/BatchToSpaceND/crops"], "attr": {"Tcrops": {"type": "DT_INT32"}, "T": {"type": "DT_FLOAT"}, "Tblock_shape": {"type": "DT_INT32"}}}, {"name": "MobilenetV2/expanded_conv_10/depthwise/BatchNorm/FusedBatchNorm/Mul", "op": "Mul", "input": ["MobilenetV2/expanded_conv_10/depthwise/depthwise/BatchToSpaceND", "MobilenetV2/expanded_conv_10/depthwise/BatchNorm/FusedBatchNorm/Scaled"], "attr": {"T": {"type": "DT_FLOAT"}}}, {"name": "MobilenetV2/expanded_conv_10/depthwise/BatchNorm/FusedBatchNorm", "op": "Add", "input": ["MobilenetV2/expanded_conv_10/depthwise/BatchNorm/FusedBatchNorm/Mul", "MobilenetV2/expanded_conv_10/depthwise/BatchNorm/FusedBatchNorm/Offset"], "attr": {"T": {"type": "DT_FLOAT"}}}, {"name": "MobilenetV2/expanded_conv_10/depthwise/Relu6", "op": "Relu6", "input": ["MobilenetV2/expanded_conv_10/depthwise/BatchNorm/FusedBatchNorm"], "attr": {"T": {"type": "DT_FLOAT"}}}, {"name": "MobilenetV2/expanded_conv_10/project/BatchNorm/FusedBatchNorm/Mul", "op": "Conv2D", "input": ["MobilenetV2/expanded_conv_10/depthwise/Relu6", "MobilenetV2/expanded_conv_10/project/Conv2D/merged_input"], "attr": {"dilations": {"list": {"i": ["1", "1", "1", "1"]}}, "T": {"type": "DT_FLOAT"}, "strides": {"list": {"i": ["1", "1", "1", "1"]}}, "data_format": {"s": "TkhXQw=="}, "use_cudnn_on_gpu": {"b": true}, "padding": {"s": "U0FNRQ=="}}}, {"name": "MobilenetV2/expanded_conv_10/project/BatchNorm/FusedBatchNorm", "op": "Add", "input": ["MobilenetV2/expanded_conv_10/project/BatchNorm/FusedBatchNorm/Mul", "MobilenetV2/expanded_conv_10/project/BatchNorm/FusedBatchNorm/Offset"], "attr": {"T": {"type": "DT_FLOAT"}}}, {"name": "MobilenetV2/expanded_conv_11/expand/BatchNorm/FusedBatchNorm/Mul", "op": "Conv2D", "input": ["MobilenetV2/expanded_conv_10/project/BatchNorm/FusedBatchNorm", "MobilenetV2/expanded_conv_11/expand/Conv2D/merged_input"], "attr": {"data_format": {"s": "TkhXQw=="}, "strides": {"list": {"i": ["1", "1", "1", "1"]}}, "use_cudnn_on_gpu": {"b": true}, "padding": {"s": "U0FNRQ=="}, "dilations": {"list": {"i": ["1", "1", "1", "1"]}}, "T": {"type": "DT_FLOAT"}}}, {"name": "MobilenetV2/expanded_conv_11/expand/BatchNorm/FusedBatchNorm", "op": "Add", "input": ["MobilenetV2/expanded_conv_11/expand/BatchNorm/FusedBatchNorm/Mul", "MobilenetV2/expanded_conv_11/expand/BatchNorm/FusedBatchNorm/Offset"], "attr": {"T": {"type": "DT_FLOAT"}}}, {"name": "MobilenetV2/expanded_conv_11/expand/Relu6", "op": "Relu6", "input": ["MobilenetV2/expanded_conv_11/expand/BatchNorm/FusedBatchNorm"], "attr": {"T": {"type": "DT_FLOAT"}}}, {"name": "MobilenetV2/expanded_conv_11/depthwise/depthwise/SpaceToBatchND", "op": "SpaceToBatchND", "input": ["MobilenetV2/expanded_conv_11/expand/Relu6", "MobilenetV2/expanded_conv_12/depthwise/depthwise/SpaceToBatchND/block_shape", "MobilenetV2/expanded_conv_12/depthwise/depthwise/SpaceToBatchND/paddings"], "attr": {"Tpaddings": {"type": "DT_INT32"}, "Tblock_shape": {"type": "DT_INT32"}, "T": {"type": "DT_FLOAT"}}}, {"name": "MobilenetV2/expanded_conv_11/depthwise/depthwise", "op": "DepthwiseConv2dNative", "input": ["MobilenetV2/expanded_conv_11/depthwise/depthwise/SpaceToBatchND", "MobilenetV2/expanded_conv_11/depthwise/depthwise_weights"], "attr": {"dilations": {"list": {"i": ["1", "1", "1", "1"]}}, "padding": {"s": "VkFMSUQ="}, "T": {"type": "DT_FLOAT"}, "strides": {"list": {"i": ["1", "1", "1", "1"]}}, "data_format": {"s": "TkhXQw=="}}}, {"name": "MobilenetV2/expanded_conv_11/depthwise/depthwise/BatchToSpaceND", "op": "BatchToSpaceND", "input": ["MobilenetV2/expanded_conv_11/depthwise/depthwise", "MobilenetV2/expanded_conv_12/depthwise/depthwise/SpaceToBatchND/block_shape", "MobilenetV2/expanded_conv_12/depthwise/depthwise/BatchToSpaceND/crops"], "attr": {"Tblock_shape": {"type": "DT_INT32"}, "Tcrops": {"type": "DT_INT32"}, "T": {"type": "DT_FLOAT"}}}, {"name": "MobilenetV2/expanded_conv_11/depthwise/BatchNorm/FusedBatchNorm/Mul", "op": "Mul", "input": ["MobilenetV2/expanded_conv_11/depthwise/depthwise/BatchToSpaceND", "MobilenetV2/expanded_conv_11/depthwise/BatchNorm/FusedBatchNorm/Scaled"], "attr": {"T": {"type": "DT_FLOAT"}}}, {"name": "MobilenetV2/expanded_conv_11/depthwise/BatchNorm/FusedBatchNorm", "op": "Add", "input": ["MobilenetV2/expanded_conv_11/depthwise/BatchNorm/FusedBatchNorm/Mul", "MobilenetV2/expanded_conv_11/depthwise/BatchNorm/FusedBatchNorm/Offset"], "attr": {"T": {"type": "DT_FLOAT"}}}, {"name": "MobilenetV2/expanded_conv_11/depthwise/Relu6", "op": "Relu6", "input": ["MobilenetV2/expanded_conv_11/depthwise/BatchNorm/FusedBatchNorm"], "attr": {"T": {"type": "DT_FLOAT"}}}, {"name": "MobilenetV2/expanded_conv_11/project/BatchNorm/FusedBatchNorm/Mul", "op": "Conv2D", "input": ["MobilenetV2/expanded_conv_11/depthwise/Relu6", "MobilenetV2/expanded_conv_11/project/Conv2D/merged_input"], "attr": {"dilations": {"list": {"i": ["1", "1", "1", "1"]}}, "T": {"type": "DT_FLOAT"}, "data_format": {"s": "TkhXQw=="}, "strides": {"list": {"i": ["1", "1", "1", "1"]}}, "use_cudnn_on_gpu": {"b": true}, "padding": {"s": "U0FNRQ=="}}}, {"name": "MobilenetV2/expanded_conv_11/project/BatchNorm/FusedBatchNorm", "op": "Add", "input": ["MobilenetV2/expanded_conv_11/project/BatchNorm/FusedBatchNorm/Mul", "MobilenetV2/expanded_conv_11/project/BatchNorm/FusedBatchNorm/Offset"], "attr": {"T": {"type": "DT_FLOAT"}}}, {"name": "MobilenetV2/expanded_conv_11/add", "op": "Add", "input": ["MobilenetV2/expanded_conv_11/project/BatchNorm/FusedBatchNorm", "MobilenetV2/expanded_conv_10/project/BatchNorm/FusedBatchNorm"], "attr": {"T": {"type": "DT_FLOAT"}}}, {"name": "MobilenetV2/expanded_conv_12/expand/BatchNorm/FusedBatchNorm/Mul", "op": "Conv2D", "input": ["MobilenetV2/expanded_conv_11/add", "MobilenetV2/expanded_conv_12/expand/Conv2D/merged_input"], "attr": {"dilations": {"list": {"i": ["1", "1", "1", "1"]}}, "T": {"type": "DT_FLOAT"}, "strides": {"list": {"i": ["1", "1", "1", "1"]}}, "data_format": {"s": "TkhXQw=="}, "use_cudnn_on_gpu": {"b": true}, "padding": {"s": "U0FNRQ=="}}}, {"name": "MobilenetV2/expanded_conv_12/expand/BatchNorm/FusedBatchNorm", "op": "Add", "input": ["MobilenetV2/expanded_conv_12/expand/BatchNorm/FusedBatchNorm/Mul", "MobilenetV2/expanded_conv_12/expand/BatchNorm/FusedBatchNorm/Offset"], "attr": {"T": {"type": "DT_FLOAT"}}}, {"name": "MobilenetV2/expanded_conv_12/expand/Relu6", "op": "Relu6", "input": ["MobilenetV2/expanded_conv_12/expand/BatchNorm/FusedBatchNorm"], "attr": {"T": {"type": "DT_FLOAT"}}}, {"name": "MobilenetV2/expanded_conv_12/depthwise/depthwise/SpaceToBatchND", "op": "SpaceToBatchND", "input": ["MobilenetV2/expanded_conv_12/expand/Relu6", "MobilenetV2/expanded_conv_12/depthwise/depthwise/SpaceToBatchND/block_shape", "MobilenetV2/expanded_conv_12/depthwise/depthwise/SpaceToBatchND/paddings"], "attr": {"T": {"type": "DT_FLOAT"}, "Tpaddings": {"type": "DT_INT32"}, "Tblock_shape": {"type": "DT_INT32"}}}, {"name": "MobilenetV2/expanded_conv_12/depthwise/depthwise", "op": "DepthwiseConv2dNative", "input": ["MobilenetV2/expanded_conv_12/depthwise/depthwise/SpaceToBatchND", "MobilenetV2/expanded_conv_12/depthwise/depthwise_weights"], "attr": {"data_format": {"s": "TkhXQw=="}, "strides": {"list": {"i": ["1", "1", "1", "1"]}}, "dilations": {"list": {"i": ["1", "1", "1", "1"]}}, "padding": {"s": "VkFMSUQ="}, "T": {"type": "DT_FLOAT"}}}, {"name": "MobilenetV2/expanded_conv_12/depthwise/depthwise/BatchToSpaceND", "op": "BatchToSpaceND", "input": ["MobilenetV2/expanded_conv_12/depthwise/depthwise", "MobilenetV2/expanded_conv_12/depthwise/depthwise/SpaceToBatchND/block_shape", "MobilenetV2/expanded_conv_12/depthwise/depthwise/BatchToSpaceND/crops"], "attr": {"Tblock_shape": {"type": "DT_INT32"}, "Tcrops": {"type": "DT_INT32"}, "T": {"type": "DT_FLOAT"}}}, {"name": "MobilenetV2/expanded_conv_12/depthwise/BatchNorm/FusedBatchNorm/Mul", "op": "Mul", "input": ["MobilenetV2/expanded_conv_12/depthwise/depthwise/BatchToSpaceND", "MobilenetV2/expanded_conv_12/depthwise/BatchNorm/FusedBatchNorm/Scaled"], "attr": {"T": {"type": "DT_FLOAT"}}}, {"name": "MobilenetV2/expanded_conv_12/depthwise/BatchNorm/FusedBatchNorm", "op": "Add", "input": ["MobilenetV2/expanded_conv_12/depthwise/BatchNorm/FusedBatchNorm/Mul", "MobilenetV2/expanded_conv_12/depthwise/BatchNorm/FusedBatchNorm/Offset"], "attr": {"T": {"type": "DT_FLOAT"}}}, {"name": "MobilenetV2/expanded_conv_12/depthwise/Relu6", "op": "Relu6", "input": ["MobilenetV2/expanded_conv_12/depthwise/BatchNorm/FusedBatchNorm"], "attr": {"T": {"type": "DT_FLOAT"}}}, {"name": "MobilenetV2/expanded_conv_12/project/BatchNorm/FusedBatchNorm/Mul", "op": "Conv2D", "input": ["MobilenetV2/expanded_conv_12/depthwise/Relu6", "MobilenetV2/expanded_conv_12/project/Conv2D/merged_input"], "attr": {"T": {"type": "DT_FLOAT"}, "data_format": {"s": "TkhXQw=="}, "strides": {"list": {"i": ["1", "1", "1", "1"]}}, "use_cudnn_on_gpu": {"b": true}, "padding": {"s": "U0FNRQ=="}, "dilations": {"list": {"i": ["1", "1", "1", "1"]}}}}, {"name": "MobilenetV2/expanded_conv_12/project/BatchNorm/FusedBatchNorm", "op": "Add", "input": ["MobilenetV2/expanded_conv_12/project/BatchNorm/FusedBatchNorm/Mul", "MobilenetV2/expanded_conv_12/project/BatchNorm/FusedBatchNorm/Offset"], "attr": {"T": {"type": "DT_FLOAT"}}}, {"name": "MobilenetV2/expanded_conv_12/add", "op": "Add", "input": ["MobilenetV2/expanded_conv_12/project/BatchNorm/FusedBatchNorm", "MobilenetV2/expanded_conv_11/add"], "attr": {"T": {"type": "DT_FLOAT"}}}, {"name": "MobilenetV2/expanded_conv_13/expand/BatchNorm/FusedBatchNorm/Mul", "op": "Conv2D", "input": ["MobilenetV2/expanded_conv_12/add", "MobilenetV2/expanded_conv_13/expand/Conv2D/merged_input"], "attr": {"dilations": {"list": {"i": ["1", "1", "1", "1"]}}, "T": {"type": "DT_FLOAT"}, "data_format": {"s": "TkhXQw=="}, "strides": {"list": {"i": ["1", "1", "1", "1"]}}, "use_cudnn_on_gpu": {"b": true}, "padding": {"s": "U0FNRQ=="}}}, {"name": "MobilenetV2/expanded_conv_13/expand/BatchNorm/FusedBatchNorm", "op": "Add", "input": ["MobilenetV2/expanded_conv_13/expand/BatchNorm/FusedBatchNorm/Mul", "MobilenetV2/expanded_conv_13/expand/BatchNorm/FusedBatchNorm/Offset"], "attr": {"T": {"type": "DT_FLOAT"}}}, {"name": "MobilenetV2/expanded_conv_13/expand/Relu6", "op": "Relu6", "input": ["MobilenetV2/expanded_conv_13/expand/BatchNorm/FusedBatchNorm"], "attr": {"T": {"type": "DT_FLOAT"}}}, {"name": "MobilenetV2/expanded_conv_13/depthwise/depthwise/SpaceToBatchND", "op": "SpaceToBatchND", "input": ["MobilenetV2/expanded_conv_13/expand/Relu6", "MobilenetV2/expanded_conv_12/depthwise/depthwise/SpaceToBatchND/block_shape", "MobilenetV2/expanded_conv_12/depthwise/depthwise/SpaceToBatchND/paddings"], "attr": {"Tpaddings": {"type": "DT_INT32"}, "Tblock_shape": {"type": "DT_INT32"}, "T": {"type": "DT_FLOAT"}}}, {"name": "MobilenetV2/expanded_conv_13/depthwise/depthwise", "op": "DepthwiseConv2dNative", "input": ["MobilenetV2/expanded_conv_13/depthwise/depthwise/SpaceToBatchND", "MobilenetV2/expanded_conv_13/depthwise/depthwise_weights"], "attr": {"padding": {"s": "VkFMSUQ="}, "dilations": {"list": {"i": ["1", "1", "1", "1"]}}, "T": {"type": "DT_FLOAT"}, "strides": {"list": {"i": ["1", "1", "1", "1"]}}, "data_format": {"s": "TkhXQw=="}}}, {"name": "MobilenetV2/expanded_conv_13/depthwise/depthwise/BatchToSpaceND", "op": "BatchToSpaceND", "input": ["MobilenetV2/expanded_conv_13/depthwise/depthwise", "MobilenetV2/expanded_conv_12/depthwise/depthwise/SpaceToBatchND/block_shape", "MobilenetV2/expanded_conv_12/depthwise/depthwise/BatchToSpaceND/crops"], "attr": {"Tblock_shape": {"type": "DT_INT32"}, "Tcrops": {"type": "DT_INT32"}, "T": {"type": "DT_FLOAT"}}}, {"name": "MobilenetV2/expanded_conv_13/depthwise/BatchNorm/FusedBatchNorm/Mul", "op": "Mul", "input": ["MobilenetV2/expanded_conv_13/depthwise/depthwise/BatchToSpaceND", "MobilenetV2/expanded_conv_13/depthwise/BatchNorm/FusedBatchNorm/Scaled"], "attr": {"T": {"type": "DT_FLOAT"}}}, {"name": "MobilenetV2/expanded_conv_13/depthwise/BatchNorm/FusedBatchNorm", "op": "Add", "input": ["MobilenetV2/expanded_conv_13/depthwise/BatchNorm/FusedBatchNorm/Mul", "MobilenetV2/expanded_conv_13/depthwise/BatchNorm/FusedBatchNorm/Offset"], "attr": {"T": {"type": "DT_FLOAT"}}}, {"name": "MobilenetV2/expanded_conv_13/depthwise/Relu6", "op": "Relu6", "input": ["MobilenetV2/expanded_conv_13/depthwise/BatchNorm/FusedBatchNorm"], "attr": {"T": {"type": "DT_FLOAT"}}}, {"name": "MobilenetV2/expanded_conv_13/project/BatchNorm/FusedBatchNorm/Mul", "op": "Conv2D", "input": ["MobilenetV2/expanded_conv_13/depthwise/Relu6", "MobilenetV2/expanded_conv_13/project/Conv2D/merged_input"], "attr": {"dilations": {"list": {"i": ["1", "1", "1", "1"]}}, "T": {"type": "DT_FLOAT"}, "strides": {"list": {"i": ["1", "1", "1", "1"]}}, "data_format": {"s": "TkhXQw=="}, "use_cudnn_on_gpu": {"b": true}, "padding": {"s": "U0FNRQ=="}}}, {"name": "MobilenetV2/expanded_conv_13/project/BatchNorm/FusedBatchNorm", "op": "Add", "input": ["MobilenetV2/expanded_conv_13/project/BatchNorm/FusedBatchNorm/Mul", "MobilenetV2/expanded_conv_13/project/BatchNorm/FusedBatchNorm/Offset"], "attr": {"T": {"type": "DT_FLOAT"}}}, {"name": "MobilenetV2/expanded_conv_14/expand/BatchNorm/FusedBatchNorm/Mul", "op": "Conv2D", "input": ["MobilenetV2/expanded_conv_13/project/BatchNorm/FusedBatchNorm", "MobilenetV2/expanded_conv_14/expand/Conv2D/merged_input"], "attr": {"dilations": {"list": {"i": ["1", "1", "1", "1"]}}, "T": {"type": "DT_FLOAT"}, "data_format": {"s": "TkhXQw=="}, "strides": {"list": {"i": ["1", "1", "1", "1"]}}, "use_cudnn_on_gpu": {"b": true}, "padding": {"s": "U0FNRQ=="}}}, {"name": "MobilenetV2/expanded_conv_14/expand/BatchNorm/FusedBatchNorm", "op": "Add", "input": ["MobilenetV2/expanded_conv_14/expand/BatchNorm/FusedBatchNorm/Mul", "MobilenetV2/expanded_conv_14/expand/BatchNorm/FusedBatchNorm/Offset"], "attr": {"T": {"type": "DT_FLOAT"}}}, {"name": "MobilenetV2/expanded_conv_14/expand/Relu6", "op": "Relu6", "input": ["MobilenetV2/expanded_conv_14/expand/BatchNorm/FusedBatchNorm"], "attr": {"T": {"type": "DT_FLOAT"}}}, {"name": "MobilenetV2/expanded_conv_14/depthwise/depthwise/SpaceToBatchND", "op": "SpaceToBatchND", "input": ["MobilenetV2/expanded_conv_14/expand/Relu6", "MobilenetV2/expanded_conv_15/depthwise/depthwise/SpaceToBatchND/block_shape", "MobilenetV2/expanded_conv_15/depthwise/depthwise/SpaceToBatchND/paddings"], "attr": {"T": {"type": "DT_FLOAT"}, "Tpaddings": {"type": "DT_INT32"}, "Tblock_shape": {"type": "DT_INT32"}}}, {"name": "MobilenetV2/expanded_conv_14/depthwise/depthwise", "op": "DepthwiseConv2dNative", "input": ["MobilenetV2/expanded_conv_14/depthwise/depthwise/SpaceToBatchND", "MobilenetV2/expanded_conv_14/depthwise/depthwise_weights"], "attr": {"dilations": {"list": {"i": ["1", "1", "1", "1"]}}, "padding": {"s": "VkFMSUQ="}, "T": {"type": "DT_FLOAT"}, "strides": {"list": {"i": ["1", "1", "1", "1"]}}, "data_format": {"s": "TkhXQw=="}}}, {"name": "MobilenetV2/expanded_conv_14/depthwise/depthwise/BatchToSpaceND", "op": "BatchToSpaceND", "input": ["MobilenetV2/expanded_conv_14/depthwise/depthwise", "MobilenetV2/expanded_conv_15/depthwise/depthwise/SpaceToBatchND/block_shape", "MobilenetV2/expanded_conv_15/depthwise/depthwise/BatchToSpaceND/crops"], "attr": {"Tcrops": {"type": "DT_INT32"}, "T": {"type": "DT_FLOAT"}, "Tblock_shape": {"type": "DT_INT32"}}}, {"name": "MobilenetV2/expanded_conv_14/depthwise/BatchNorm/FusedBatchNorm/Mul", "op": "Mul", "input": ["MobilenetV2/expanded_conv_14/depthwise/depthwise/BatchToSpaceND", "MobilenetV2/expanded_conv_14/depthwise/BatchNorm/FusedBatchNorm/Scaled"], "attr": {"T": {"type": "DT_FLOAT"}}}, {"name": "MobilenetV2/expanded_conv_14/depthwise/BatchNorm/FusedBatchNorm", "op": "Add", "input": ["MobilenetV2/expanded_conv_14/depthwise/BatchNorm/FusedBatchNorm/Mul", "MobilenetV2/expanded_conv_14/depthwise/BatchNorm/FusedBatchNorm/Offset"], "attr": {"T": {"type": "DT_FLOAT"}}}, {"name": "MobilenetV2/expanded_conv_14/depthwise/Relu6", "op": "Relu6", "input": ["MobilenetV2/expanded_conv_14/depthwise/BatchNorm/FusedBatchNorm"], "attr": {"T": {"type": "DT_FLOAT"}}}, {"name": "MobilenetV2/expanded_conv_14/project/BatchNorm/FusedBatchNorm/Mul", "op": "Conv2D", "input": ["MobilenetV2/expanded_conv_14/depthwise/Relu6", "MobilenetV2/expanded_conv_14/project/Conv2D/merged_input"], "attr": {"padding": {"s": "U0FNRQ=="}, "dilations": {"list": {"i": ["1", "1", "1", "1"]}}, "T": {"type": "DT_FLOAT"}, "data_format": {"s": "TkhXQw=="}, "strides": {"list": {"i": ["1", "1", "1", "1"]}}, "use_cudnn_on_gpu": {"b": true}}}, {"name": "MobilenetV2/expanded_conv_14/project/BatchNorm/FusedBatchNorm", "op": "Add", "input": ["MobilenetV2/expanded_conv_14/project/BatchNorm/FusedBatchNorm/Mul", "MobilenetV2/expanded_conv_14/project/BatchNorm/FusedBatchNorm/Offset"], "attr": {"T": {"type": "DT_FLOAT"}}}, {"name": "MobilenetV2/expanded_conv_14/add", "op": "Add", "input": ["MobilenetV2/expanded_conv_14/project/BatchNorm/FusedBatchNorm", "MobilenetV2/expanded_conv_13/project/BatchNorm/FusedBatchNorm"], "attr": {"T": {"type": "DT_FLOAT"}}}, {"name": "MobilenetV2/expanded_conv_15/expand/BatchNorm/FusedBatchNorm/Mul", "op": "Conv2D", "input": ["MobilenetV2/expanded_conv_14/add", "MobilenetV2/expanded_conv_15/expand/Conv2D/merged_input"], "attr": {"dilations": {"list": {"i": ["1", "1", "1", "1"]}}, "T": {"type": "DT_FLOAT"}, "strides": {"list": {"i": ["1", "1", "1", "1"]}}, "data_format": {"s": "TkhXQw=="}, "use_cudnn_on_gpu": {"b": true}, "padding": {"s": "U0FNRQ=="}}}, {"name": "MobilenetV2/expanded_conv_15/expand/BatchNorm/FusedBatchNorm", "op": "Add", "input": ["MobilenetV2/expanded_conv_15/expand/BatchNorm/FusedBatchNorm/Mul", "MobilenetV2/expanded_conv_15/expand/BatchNorm/FusedBatchNorm/Offset"], "attr": {"T": {"type": "DT_FLOAT"}}}, {"name": "MobilenetV2/expanded_conv_15/expand/Relu6", "op": "Relu6", "input": ["MobilenetV2/expanded_conv_15/expand/BatchNorm/FusedBatchNorm"], "attr": {"T": {"type": "DT_FLOAT"}}}, {"name": "MobilenetV2/expanded_conv_15/depthwise/depthwise/SpaceToBatchND", "op": "SpaceToBatchND", "input": ["MobilenetV2/expanded_conv_15/expand/Relu6", "MobilenetV2/expanded_conv_15/depthwise/depthwise/SpaceToBatchND/block_shape", "MobilenetV2/expanded_conv_15/depthwise/depthwise/SpaceToBatchND/paddings"], "attr": {"T": {"type": "DT_FLOAT"}, "Tpaddings": {"type": "DT_INT32"}, "Tblock_shape": {"type": "DT_INT32"}}}, {"name": "MobilenetV2/expanded_conv_15/depthwise/depthwise", "op": "DepthwiseConv2dNative", "input": ["MobilenetV2/expanded_conv_15/depthwise/depthwise/SpaceToBatchND", "MobilenetV2/expanded_conv_15/depthwise/depthwise_weights"], "attr": {"padding": {"s": "VkFMSUQ="}, "dilations": {"list": {"i": ["1", "1", "1", "1"]}}, "T": {"type": "DT_FLOAT"}, "strides": {"list": {"i": ["1", "1", "1", "1"]}}, "data_format": {"s": "TkhXQw=="}}}, {"name": "MobilenetV2/expanded_conv_15/depthwise/depthwise/BatchToSpaceND", "op": "BatchToSpaceND", "input": ["MobilenetV2/expanded_conv_15/depthwise/depthwise", "MobilenetV2/expanded_conv_15/depthwise/depthwise/SpaceToBatchND/block_shape", "MobilenetV2/expanded_conv_15/depthwise/depthwise/BatchToSpaceND/crops"], "attr": {"Tblock_shape": {"type": "DT_INT32"}, "Tcrops": {"type": "DT_INT32"}, "T": {"type": "DT_FLOAT"}}}, {"name": "MobilenetV2/expanded_conv_15/depthwise/BatchNorm/FusedBatchNorm/Mul", "op": "Mul", "input": ["MobilenetV2/expanded_conv_15/depthwise/depthwise/BatchToSpaceND", "MobilenetV2/expanded_conv_15/depthwise/BatchNorm/FusedBatchNorm/Scaled"], "attr": {"T": {"type": "DT_FLOAT"}}}, {"name": "MobilenetV2/expanded_conv_15/depthwise/BatchNorm/FusedBatchNorm", "op": "Add", "input": ["MobilenetV2/expanded_conv_15/depthwise/BatchNorm/FusedBatchNorm/Mul", "MobilenetV2/expanded_conv_15/depthwise/BatchNorm/FusedBatchNorm/Offset"], "attr": {"T": {"type": "DT_FLOAT"}}}, {"name": "MobilenetV2/expanded_conv_15/depthwise/Relu6", "op": "Relu6", "input": ["MobilenetV2/expanded_conv_15/depthwise/BatchNorm/FusedBatchNorm"], "attr": {"T": {"type": "DT_FLOAT"}}}, {"name": "MobilenetV2/expanded_conv_15/project/BatchNorm/FusedBatchNorm/Mul", "op": "Conv2D", "input": ["MobilenetV2/expanded_conv_15/depthwise/Relu6", "MobilenetV2/expanded_conv_15/project/Conv2D/merged_input"], "attr": {"padding": {"s": "U0FNRQ=="}, "dilations": {"list": {"i": ["1", "1", "1", "1"]}}, "T": {"type": "DT_FLOAT"}, "data_format": {"s": "TkhXQw=="}, "strides": {"list": {"i": ["1", "1", "1", "1"]}}, "use_cudnn_on_gpu": {"b": true}}}, {"name": "MobilenetV2/expanded_conv_15/project/BatchNorm/FusedBatchNorm", "op": "Add", "input": ["MobilenetV2/expanded_conv_15/project/BatchNorm/FusedBatchNorm/Mul", "MobilenetV2/expanded_conv_15/project/BatchNorm/FusedBatchNorm/Offset"], "attr": {"T": {"type": "DT_FLOAT"}}}, {"name": "MobilenetV2/expanded_conv_15/add", "op": "Add", "input": ["MobilenetV2/expanded_conv_15/project/BatchNorm/FusedBatchNorm", "MobilenetV2/expanded_conv_14/add"], "attr": {"T": {"type": "DT_FLOAT"}}}, {"name": "MobilenetV2/expanded_conv_16/expand/BatchNorm/FusedBatchNorm/Mul", "op": "Conv2D", "input": ["MobilenetV2/expanded_conv_15/add", "MobilenetV2/expanded_conv_16/expand/Conv2D/merged_input"], "attr": {"dilations": {"list": {"i": ["1", "1", "1", "1"]}}, "T": {"type": "DT_FLOAT"}, "data_format": {"s": "TkhXQw=="}, "strides": {"list": {"i": ["1", "1", "1", "1"]}}, "use_cudnn_on_gpu": {"b": true}, "padding": {"s": "U0FNRQ=="}}}, {"name": "MobilenetV2/expanded_conv_16/expand/BatchNorm/FusedBatchNorm", "op": "Add", "input": ["MobilenetV2/expanded_conv_16/expand/BatchNorm/FusedBatchNorm/Mul", "MobilenetV2/expanded_conv_16/expand/BatchNorm/FusedBatchNorm/Offset"], "attr": {"T": {"type": "DT_FLOAT"}}}, {"name": "MobilenetV2/expanded_conv_16/expand/Relu6", "op": "Relu6", "input": ["MobilenetV2/expanded_conv_16/expand/BatchNorm/FusedBatchNorm"], "attr": {"T": {"type": "DT_FLOAT"}}}, {"name": "MobilenetV2/expanded_conv_16/depthwise/depthwise/SpaceToBatchND", "op": "SpaceToBatchND", "input": ["MobilenetV2/expanded_conv_16/expand/Relu6", "MobilenetV2/expanded_conv_15/depthwise/depthwise/SpaceToBatchND/block_shape", "MobilenetV2/expanded_conv_15/depthwise/depthwise/SpaceToBatchND/paddings"], "attr": {"T": {"type": "DT_FLOAT"}, "Tpaddings": {"type": "DT_INT32"}, "Tblock_shape": {"type": "DT_INT32"}}}, {"name": "MobilenetV2/expanded_conv_16/depthwise/depthwise", "op": "DepthwiseConv2dNative", "input": ["MobilenetV2/expanded_conv_16/depthwise/depthwise/SpaceToBatchND", "MobilenetV2/expanded_conv_16/depthwise/depthwise_weights"], "attr": {"dilations": {"list": {"i": ["1", "1", "1", "1"]}}, "padding": {"s": "VkFMSUQ="}, "T": {"type": "DT_FLOAT"}, "data_format": {"s": "TkhXQw=="}, "strides": {"list": {"i": ["1", "1", "1", "1"]}}}}, {"name": "MobilenetV2/expanded_conv_16/depthwise/depthwise/BatchToSpaceND", "op": "BatchToSpaceND", "input": ["MobilenetV2/expanded_conv_16/depthwise/depthwise", "MobilenetV2/expanded_conv_15/depthwise/depthwise/SpaceToBatchND/block_shape", "MobilenetV2/expanded_conv_15/depthwise/depthwise/BatchToSpaceND/crops"], "attr": {"Tcrops": {"type": "DT_INT32"}, "T": {"type": "DT_FLOAT"}, "Tblock_shape": {"type": "DT_INT32"}}}, {"name": "MobilenetV2/expanded_conv_16/depthwise/BatchNorm/FusedBatchNorm/Mul", "op": "Mul", "input": ["MobilenetV2/expanded_conv_16/depthwise/depthwise/BatchToSpaceND", "MobilenetV2/expanded_conv_16/depthwise/BatchNorm/FusedBatchNorm/Scaled"], "attr": {"T": {"type": "DT_FLOAT"}}}, {"name": "MobilenetV2/expanded_conv_16/depthwise/BatchNorm/FusedBatchNorm", "op": "Add", "input": ["MobilenetV2/expanded_conv_16/depthwise/BatchNorm/FusedBatchNorm/Mul", "MobilenetV2/expanded_conv_16/depthwise/BatchNorm/FusedBatchNorm/Offset"], "attr": {"T": {"type": "DT_FLOAT"}}}, {"name": "MobilenetV2/expanded_conv_16/depthwise/Relu6", "op": "Relu6", "input": ["MobilenetV2/expanded_conv_16/depthwise/BatchNorm/FusedBatchNorm"], "attr": {"T": {"type": "DT_FLOAT"}}}, {"name": "MobilenetV2/expanded_conv_16/project/BatchNorm/FusedBatchNorm/Mul", "op": "Conv2D", "input": ["MobilenetV2/expanded_conv_16/depthwise/Relu6", "MobilenetV2/expanded_conv_16/project/Conv2D/merged_input"], "attr": {"padding": {"s": "U0FNRQ=="}, "dilations": {"list": {"i": ["1", "1", "1", "1"]}}, "T": {"type": "DT_FLOAT"}, "data_format": {"s": "TkhXQw=="}, "strides": {"list": {"i": ["1", "1", "1", "1"]}}, "use_cudnn_on_gpu": {"b": true}}}, {"name": "MobilenetV2/expanded_conv_16/project/BatchNorm/FusedBatchNorm", "op": "Add", "input": ["MobilenetV2/expanded_conv_16/project/BatchNorm/FusedBatchNorm/Mul", "MobilenetV2/expanded_conv_16/project/BatchNorm/FusedBatchNorm/Offset"], "attr": {"T": {"type": "DT_FLOAT"}}}, {"name": "aspp0/BatchNorm/FusedBatchNorm/Mul", "op": "Conv2D", "input": ["MobilenetV2/expanded_conv_16/project/BatchNorm/FusedBatchNorm", "aspp0/Conv2D/merged_input"], "attr": {"T": {"type": "DT_FLOAT"}, "strides": {"list": {"i": ["1", "1", "1", "1"]}}, "data_format": {"s": "TkhXQw=="}, "use_cudnn_on_gpu": {"b": true}, "padding": {"s": "U0FNRQ=="}, "dilations": {"list": {"i": ["1", "1", "1", "1"]}}}}, {"name": "AvgPool2D/AvgPool", "op": "AvgPool", "input": ["MobilenetV2/expanded_conv_16/project/BatchNorm/FusedBatchNorm"], "attr": {"ksize": {"list": {"i": ["1", "65", "65", "1"]}}, "padding": {"s": "VkFMSUQ="}, "T": {"type": "DT_FLOAT"}, "data_format": {"s": "TkhXQw=="}, "strides": {"list": {"i": ["1", "1", "1", "1"]}}}}, {"name": "aspp0/BatchNorm/FusedBatchNorm", "op": "Add", "input": ["aspp0/BatchNorm/FusedBatchNorm/Mul", "aspp0/BatchNorm/FusedBatchNorm/Offset"], "attr": {"T": {"type": "DT_FLOAT"}}}, {"name": "image_pooling/BatchNorm/FusedBatchNorm/Mul", "op": "Conv2D", "input": ["AvgPool2D/AvgPool", "image_pooling/Conv2D/merged_input"], "attr": {"padding": {"s": "U0FNRQ=="}, "dilations": {"list": {"i": ["1", "1", "1", "1"]}}, "T": {"type": "DT_FLOAT"}, "strides": {"list": {"i": ["1", "1", "1", "1"]}}, "data_format": {"s": "TkhXQw=="}, "use_cudnn_on_gpu": {"b": true}}}, {"name": "aspp0/Relu", "op": "Relu", "input": ["aspp0/BatchNorm/FusedBatchNorm"], "attr": {"T": {"type": "DT_FLOAT"}}}, {"name": "image_pooling/BatchNorm/FusedBatchNorm", "op": "Add", "input": ["image_pooling/BatchNorm/FusedBatchNorm/Mul", "image_pooling/BatchNorm/FusedBatchNorm/Offset"], "attr": {"T": {"type": "DT_FLOAT"}}}, {"name": "image_pooling/Relu", "op": "Relu", "input": ["image_pooling/BatchNorm/FusedBatchNorm"], "attr": {"T": {"type": "DT_FLOAT"}}}, {"name": "ResizeBilinear", "op": "ResizeBilinear", "input": ["image_pooling/Relu", "ResizeBilinear/size"], "attr": {"align_corners": {"b": true}, "T": {"type": "DT_FLOAT"}}}, {"name": "concat", "op": "ConcatV2", "input": ["ResizeBilinear", "aspp0/Relu", "Assert/Assert/data_1"], "attr": {"T": {"type": "DT_FLOAT"}, "N": {"i": "2"}, "Tidx": {"type": "DT_INT32"}}}, {"name": "concat_projection/BatchNorm/FusedBatchNorm/Mul", "op": "Conv2D", "input": ["concat", "concat_projection/Conv2D/merged_input"], "attr": {"dilations": {"list": {"i": ["1", "1", "1", "1"]}}, "T": {"type": "DT_FLOAT"}, "data_format": {"s": "TkhXQw=="}, "strides": {"list": {"i": ["1", "1", "1", "1"]}}, "use_cudnn_on_gpu": {"b": true}, "padding": {"s": "U0FNRQ=="}}}, {"name": "concat_projection/BatchNorm/FusedBatchNorm", "op": "Add", "input": ["concat_projection/BatchNorm/FusedBatchNorm/Mul", "concat_projection/BatchNorm/FusedBatchNorm/Offset"], "attr": {"T": {"type": "DT_FLOAT"}}}, {"name": "concat_projection/Relu", "op": "Relu", "input": ["concat_projection/BatchNorm/FusedBatchNorm"], "attr": {"T": {"type": "DT_FLOAT"}}}, {"name": "logits/semantic/Conv2D", "op": "Conv2D", "input": ["concat_projection/Relu", "logits/semantic/weights"], "attr": {"padding": {"s": "U0FNRQ=="}, "dilations": {"list": {"i": ["1", "1", "1", "1"]}}, "T": {"type": "DT_FLOAT"}, "strides": {"list": {"i": ["1", "1", "1", "1"]}}, "data_format": {"s": "TkhXQw=="}, "use_cudnn_on_gpu": {"b": true}}}, {"name": "logits/semantic/BiasAdd", "op": "BiasAdd", "input": ["logits/semantic/Conv2D", "logits/semantic/biases"], "attr": {"T": {"type": "DT_FLOAT"}, "data_format": {"s": "TkhXQw=="}}}, {"name": "ResizeBilinear_1", "op": "ResizeBilinear", "input": ["logits/semantic/BiasAdd", "ResizeBilinear/size"], "attr": {"align_corners": {"b": true}, "T": {"type": "DT_FLOAT"}}}, {"name": "ResizeBilinear_2", "op": "ResizeBilinear", "input": ["ResizeBilinear_1", "strided_slice_6"], "attr": {"align_corners": {"b": true}, "T": {"type": "DT_FLOAT"}}}, {"name": "ArgMax", "op": "ArgMax", "input": ["ResizeBilinear_2", "Assert/Assert/data_1"], "attr": {"Tidx": {"type": "DT_INT32"}, "T": {"type": "DT_FLOAT"}, "output_type": {"type": "DT_INT64"}}}, {"name": "Slice", "op": "Slice", "input": ["ArgMax", "Slice/begin", "Slice/size"], "attr": {"T": {"type": "DT_INT64"}, "Index": {"type": "DT_INT32"}}}, {"name": "ExpandDims_1", "op": "ExpandDims", "input": ["Slice", "Assert/Assert/data_1"], "attr": {"T": {"type": "DT_INT64"}, "Tdim": {"type": "DT_INT32"}}}, {"name": "resize_images/ResizeNearestNeighbor", "op": "ResizeNearestNeighbor", "input": ["ExpandDims_1", "strided_slice"], "attr": {"align_corners": {"b": true}, "T": {"type": "DT_INT64"}}}, {"name": "Squeeze_1", "op": "Squeeze", "input": ["resize_images/ResizeNearestNeighbor"], "attr": {"squeeze_dims": {"list": {"i": ["3"]}}, "T": {"type": "DT_INT64"}}}, {"name": "SemanticPredictions", "op": "Identity", "input": ["Squeeze_1"], "attr": {"T": {"type": "DT_INT64"}}}], "library": {}, "versions": {}}, "weightsManifest": [{"paths": ["group1-shard1of1"], "weights": [{"name": "strided_slice_2/stack", "shape": [1], "dtype": "int32"}, {"name": "strided_slice/stack_1", "shape": [1], "dtype": "int32"}, {"name": "Assert/Assert/data_1", "shape": [], "dtype": "int32"}, {"name": "strided_slice_2/stack_1", "shape": [1], "dtype": "int32"}, {"name": "strided_slice_1/stack", "shape": [1], "dtype": "int32"}, {"name": "Slice/size/0", "shape": [], "dtype": "int32"}, {"name": "Slice/begin", "shape": [3], "dtype": "int32"}, {"name": "strided_slice_6", "shape": [2], "dtype": "int32"}, {"name": "ResizeBilinear/size", "shape": [2], "dtype": "int32"}, {"name": "logits/semantic/biases", "shape": [21], "dtype": "float32"}, {"name": "logits/semantic/weights", "shape": [1, 1, 256, 21], "dtype": "float32"}, {"name": "concat_projection/BatchNorm/FusedBatchNorm/Offset", "shape": [256], "dtype": "float32"}, {"name": "concat_projection/Conv2D/merged_input", "shape": [1, 1, 512, 256], "dtype": "float32"}, {"name": "aspp0/BatchNorm/FusedBatchNorm/Offset", "shape": [256], "dtype": "float32"}, {"name": "aspp0/Conv2D/merged_input", "shape": [1, 1, 160, 256], "dtype": "float32"}, {"name": "MobilenetV2/expanded_conv_16/project/BatchNorm/FusedBatchNorm/Offset", "shape": [160], "dtype": "float32"}, {"name": "MobilenetV2/expanded_conv_16/project/Conv2D/merged_input", "shape": [1, 1, 480, 160], "dtype": "float32"}, {"name": "MobilenetV2/expanded_conv_16/depthwise/BatchNorm/FusedBatchNorm/Offset", "shape": [480], "dtype": "float32"}, {"name": "MobilenetV2/expanded_conv_16/depthwise/BatchNorm/FusedBatchNorm/Scaled", "shape": [480], "dtype": "float32"}, {"name": "MobilenetV2/expanded_conv_15/depthwise/depthwise/BatchToSpaceND/crops", "shape": [2, 2], "dtype": "int32"}, {"name": "MobilenetV2/expanded_conv_15/depthwise/depthwise/SpaceToBatchND/block_shape", "shape": [2], "dtype": "int32"}, {"name": "MobilenetV2/expanded_conv_16/depthwise/depthwise_weights", "shape": [3, 3, 480, 1], "dtype": "float32"}, {"name": "MobilenetV2/expanded_conv_15/depthwise/depthwise/SpaceToBatchND/paddings", "shape": [2, 2], "dtype": "int32"}, {"name": "MobilenetV2/expanded_conv_16/expand/BatchNorm/FusedBatchNorm/Offset", "shape": [480], "dtype": "float32"}, {"name": "MobilenetV2/expanded_conv_16/expand/Conv2D/merged_input", "shape": [1, 1, 80, 480], "dtype": "float32"}, {"name": "MobilenetV2/expanded_conv_13/project/BatchNorm/FusedBatchNorm/Offset", "shape": [80], "dtype": "float32"}, {"name": "MobilenetV2/expanded_conv_13/project/Conv2D/merged_input", "shape": [1, 1, 288, 80], "dtype": "float32"}, {"name": "MobilenetV2/expanded_conv_13/depthwise/BatchNorm/FusedBatchNorm/Offset", "shape": [288], "dtype": "float32"}, {"name": "MobilenetV2/expanded_conv_13/depthwise/BatchNorm/FusedBatchNorm/Scaled", "shape": [288], "dtype": "float32"}, {"name": "MobilenetV2/expanded_conv_12/depthwise/depthwise/BatchToSpaceND/crops", "shape": [2, 2], "dtype": "int32"}, {"name": "MobilenetV2/expanded_conv_12/depthwise/depthwise/SpaceToBatchND/block_shape", "shape": [2], "dtype": "int32"}, {"name": "MobilenetV2/expanded_conv_13/depthwise/depthwise_weights", "shape": [3, 3, 288, 1], "dtype": "float32"}, {"name": "MobilenetV2/expanded_conv_12/depthwise/depthwise/SpaceToBatchND/paddings", "shape": [2, 2], "dtype": "int32"}, {"name": "MobilenetV2/expanded_conv_13/expand/BatchNorm/FusedBatchNorm/Offset", "shape": [288], "dtype": "float32"}, {"name": "MobilenetV2/expanded_conv_13/expand/Conv2D/merged_input", "shape": [1, 1, 48, 288], "dtype": "float32"}, {"name": "MobilenetV2/expanded_conv_10/project/BatchNorm/FusedBatchNorm/Offset", "shape": [48], "dtype": "float32"}, {"name": "MobilenetV2/expanded_conv_10/project/Conv2D/merged_input", "shape": [1, 1, 192, 48], "dtype": "float32"}, {"name": "MobilenetV2/expanded_conv_10/depthwise/BatchNorm/FusedBatchNorm/Offset", "shape": [192], "dtype": "float32"}, {"name": "MobilenetV2/expanded_conv_10/depthwise/BatchNorm/FusedBatchNorm/Scaled", "shape": [192], "dtype": "float32"}, {"name": "MobilenetV2/expanded_conv_10/depthwise/depthwise_weights", "shape": [3, 3, 192, 1], "dtype": "float32"}, {"name": "MobilenetV2/expanded_conv_10/expand/BatchNorm/FusedBatchNorm/Offset", "shape": [192], "dtype": "float32"}, {"name": "MobilenetV2/expanded_conv_10/expand/Conv2D/merged_input", "shape": [1, 1, 32, 192], "dtype": "float32"}, {"name": "MobilenetV2/expanded_conv_6/project/BatchNorm/FusedBatchNorm/Offset", "shape": [32], "dtype": "float32"}, {"name": "MobilenetV2/expanded_conv_6/project/Conv2D/merged_input", "shape": [1, 1, 96, 32], "dtype": "float32"}, {"name": "MobilenetV2/expanded_conv_6/depthwise/BatchNorm/FusedBatchNorm/Offset", "shape": [96], "dtype": "float32"}, {"name": "MobilenetV2/expanded_conv_6/depthwise/BatchNorm/FusedBatchNorm/Scaled", "shape": [96], "dtype": "float32"}, {"name": "MobilenetV2/expanded_conv_6/depthwise/depthwise_weights", "shape": [3, 3, 96, 1], "dtype": "float32"}, {"name": "MobilenetV2/expanded_conv_6/expand/BatchNorm/FusedBatchNorm/Offset", "shape": [96], "dtype": "float32"}, {"name": "MobilenetV2/expanded_conv_6/expand/Conv2D/merged_input", "shape": [1, 1, 16, 96], "dtype": "float32"}, {"name": "MobilenetV2/expanded_conv_3/project/BatchNorm/FusedBatchNorm/Offset", "shape": [16], "dtype": "float32"}, {"name": "MobilenetV2/expanded_conv_3/project/Conv2D/merged_input", "shape": [1, 1, 72, 16], "dtype": "float32"}, {"name": "MobilenetV2/expanded_conv_3/depthwise/BatchNorm/FusedBatchNorm/Offset", "shape": [72], "dtype": "float32"}, {"name": "MobilenetV2/expanded_conv_3/depthwise/BatchNorm/FusedBatchNorm/Scaled", "shape": [72], "dtype": "float32"}, {"name": "MobilenetV2/expanded_conv_3/depthwise/depthwise_weights", "shape": [3, 3, 72, 1], "dtype": "float32"}, {"name": "MobilenetV2/expanded_conv_3/expand/BatchNorm/FusedBatchNorm/Offset", "shape": [72], "dtype": "float32"}, {"name": "MobilenetV2/expanded_conv_3/expand/Conv2D/merged_input", "shape": [1, 1, 12, 72], "dtype": "float32"}, {"name": "MobilenetV2/expanded_conv_1/project/BatchNorm/FusedBatchNorm/Offset", "shape": [12], "dtype": "float32"}, {"name": "MobilenetV2/expanded_conv_1/project/Conv2D/merged_input", "shape": [1, 1, 48, 12], "dtype": "float32"}, {"name": "MobilenetV2/expanded_conv_1/depthwise/BatchNorm/FusedBatchNorm/Offset", "shape": [48], "dtype": "float32"}, {"name": "MobilenetV2/expanded_conv_1/depthwise/BatchNorm/FusedBatchNorm/Scaled", "shape": [48], "dtype": "float32"}, {"name": "MobilenetV2/expanded_conv_1/depthwise/depthwise_weights", "shape": [3, 3, 48, 1], "dtype": "float32"}, {"name": "MobilenetV2/expanded_conv_1/expand/BatchNorm/FusedBatchNorm/Offset", "shape": [48], "dtype": "float32"}, {"name": "MobilenetV2/expanded_conv_1/expand/Conv2D/merged_input", "shape": [1, 1, 8, 48], "dtype": "float32"}, {"name": "MobilenetV2/expanded_conv/project/BatchNorm/FusedBatchNorm/Offset", "shape": [8], "dtype": "float32"}, {"name": "MobilenetV2/expanded_conv/project/Conv2D/merged_input", "shape": [1, 1, 16, 8], "dtype": "float32"}, {"name": "MobilenetV2/expanded_conv/depthwise/BatchNorm/FusedBatchNorm/Offset", "shape": [16], "dtype": "float32"}, {"name": "MobilenetV2/expanded_conv/depthwise/BatchNorm/FusedBatchNorm/Scaled", "shape": [16], "dtype": "float32"}, {"name": "MobilenetV2/expanded_conv/depthwise/depthwise_weights", "shape": [3, 3, 16, 1], "dtype": "float32"}, {"name": "MobilenetV2/Conv/BatchNorm/FusedBatchNorm/Offset", "shape": [16], "dtype": "float32"}, {"name": "MobilenetV2/Conv/Conv2D/merged_input", "shape": [3, 3, 3, 16], "dtype": "float32"}, {"name": "sub_7/y", "shape": [], "dtype": "float32"}, {"name": "stack/0", "shape": [], "dtype": "int32"}, {"name": "Reshape", "shape": [1, 1, 3], "dtype": "float32"}, {"name": "stack_2", "shape": [2], "dtype": "int32"}, {"name": "sub_1/x", "shape": [], "dtype": "int32"}, {"name": "mul/x", "shape": [], "dtype": "float32"}, {"name": "MobilenetV2/expanded_conv_2/project/Conv2D/merged_input", "shape": [1, 1, 72, 12], "dtype": "float32"}, {"name": "MobilenetV2/expanded_conv_2/depthwise/BatchNorm/FusedBatchNorm/Offset", "shape": [72], "dtype": "float32"}, {"name": "MobilenetV2/expanded_conv_2/depthwise/BatchNorm/FusedBatchNorm/Scaled", "shape": [72], "dtype": "float32"}, {"name": "MobilenetV2/expanded_conv_2/depthwise/depthwise_weights", "shape": [3, 3, 72, 1], "dtype": "float32"}, {"name": "MobilenetV2/expanded_conv_2/expand/BatchNorm/FusedBatchNorm/Offset", "shape": [72], "dtype": "float32"}, {"name": "MobilenetV2/expanded_conv_2/expand/Conv2D/merged_input", "shape": [1, 1, 12, 72], "dtype": "float32"}, {"name": "MobilenetV2/expanded_conv_2/project/BatchNorm/FusedBatchNorm/Offset", "shape": [12], "dtype": "float32"}, {"name": "MobilenetV2/expanded_conv_4/project/Conv2D/merged_input", "shape": [1, 1, 96, 16], "dtype": "float32"}, {"name": "MobilenetV2/expanded_conv_4/depthwise/BatchNorm/FusedBatchNorm/Offset", "shape": [96], "dtype": "float32"}, {"name": "MobilenetV2/expanded_conv_4/depthwise/BatchNorm/FusedBatchNorm/Scaled", "shape": [96], "dtype": "float32"}, {"name": "MobilenetV2/expanded_conv_4/depthwise/depthwise_weights", "shape": [3, 3, 96, 1], "dtype": "float32"}, {"name": "MobilenetV2/expanded_conv_4/expand/BatchNorm/FusedBatchNorm/Offset", "shape": [96], "dtype": "float32"}, {"name": "MobilenetV2/expanded_conv_4/expand/Conv2D/merged_input", "shape": [1, 1, 16, 96], "dtype": "float32"}, {"name": "MobilenetV2/expanded_conv_4/project/BatchNorm/FusedBatchNorm/Offset", "shape": [16], "dtype": "float32"}, {"name": "MobilenetV2/expanded_conv_5/project/Conv2D/merged_input", "shape": [1, 1, 96, 16], "dtype": "float32"}, {"name": "MobilenetV2/expanded_conv_5/depthwise/BatchNorm/FusedBatchNorm/Offset", "shape": [96], "dtype": "float32"}, {"name": "MobilenetV2/expanded_conv_5/depthwise/BatchNorm/FusedBatchNorm/Scaled", "shape": [96], "dtype": "float32"}, {"name": "MobilenetV2/expanded_conv_5/depthwise/depthwise_weights", "shape": [3, 3, 96, 1], "dtype": "float32"}, {"name": "MobilenetV2/expanded_conv_5/expand/BatchNorm/FusedBatchNorm/Offset", "shape": [96], "dtype": "float32"}, {"name": "MobilenetV2/expanded_conv_5/expand/Conv2D/merged_input", "shape": [1, 1, 16, 96], "dtype": "float32"}, {"name": "MobilenetV2/expanded_conv_5/project/BatchNorm/FusedBatchNorm/Offset", "shape": [16], "dtype": "float32"}, {"name": "MobilenetV2/expanded_conv_7/project/BatchNorm/FusedBatchNorm/Offset", "shape": [32], "dtype": "float32"}, {"name": "MobilenetV2/expanded_conv_7/project/Conv2D/merged_input", "shape": [1, 1, 192, 32], "dtype": "float32"}, {"name": "MobilenetV2/expanded_conv_7/depthwise/BatchNorm/FusedBatchNorm/Offset", "shape": [192], "dtype": "float32"}, {"name": "MobilenetV2/expanded_conv_7/depthwise/BatchNorm/FusedBatchNorm/Scaled", "shape": [192], "dtype": "float32"}, {"name": "MobilenetV2/expanded_conv_7/depthwise/depthwise_weights", "shape": [3, 3, 192, 1], "dtype": "float32"}, {"name": "MobilenetV2/expanded_conv_7/expand/BatchNorm/FusedBatchNorm/Offset", "shape": [192], "dtype": "float32"}, {"name": "MobilenetV2/expanded_conv_7/expand/Conv2D/merged_input", "shape": [1, 1, 32, 192], "dtype": "float32"}, {"name": "MobilenetV2/expanded_conv_8/project/BatchNorm/FusedBatchNorm/Offset", "shape": [32], "dtype": "float32"}, {"name": "MobilenetV2/expanded_conv_8/project/Conv2D/merged_input", "shape": [1, 1, 192, 32], "dtype": "float32"}, {"name": "MobilenetV2/expanded_conv_8/depthwise/BatchNorm/FusedBatchNorm/Offset", "shape": [192], "dtype": "float32"}, {"name": "MobilenetV2/expanded_conv_8/depthwise/BatchNorm/FusedBatchNorm/Scaled", "shape": [192], "dtype": "float32"}, {"name": "MobilenetV2/expanded_conv_8/depthwise/depthwise_weights", "shape": [3, 3, 192, 1], "dtype": "float32"}, {"name": "MobilenetV2/expanded_conv_8/expand/BatchNorm/FusedBatchNorm/Offset", "shape": [192], "dtype": "float32"}, {"name": "MobilenetV2/expanded_conv_8/expand/Conv2D/merged_input", "shape": [1, 1, 32, 192], "dtype": "float32"}, {"name": "MobilenetV2/expanded_conv_9/project/BatchNorm/FusedBatchNorm/Offset", "shape": [32], "dtype": "float32"}, {"name": "MobilenetV2/expanded_conv_9/project/Conv2D/merged_input", "shape": [1, 1, 192, 32], "dtype": "float32"}, {"name": "MobilenetV2/expanded_conv_9/depthwise/BatchNorm/FusedBatchNorm/Offset", "shape": [192], "dtype": "float32"}, {"name": "MobilenetV2/expanded_conv_9/depthwise/BatchNorm/FusedBatchNorm/Scaled", "shape": [192], "dtype": "float32"}, {"name": "MobilenetV2/expanded_conv_9/depthwise/depthwise_weights", "shape": [3, 3, 192, 1], "dtype": "float32"}, {"name": "MobilenetV2/expanded_conv_9/expand/BatchNorm/FusedBatchNorm/Offset", "shape": [192], "dtype": "float32"}, {"name": "MobilenetV2/expanded_conv_9/expand/Conv2D/merged_input", "shape": [1, 1, 32, 192], "dtype": "float32"}, {"name": "MobilenetV2/expanded_conv_11/project/BatchNorm/FusedBatchNorm/Offset", "shape": [48], "dtype": "float32"}, {"name": "MobilenetV2/expanded_conv_11/project/Conv2D/merged_input", "shape": [1, 1, 288, 48], "dtype": "float32"}, {"name": "MobilenetV2/expanded_conv_11/depthwise/BatchNorm/FusedBatchNorm/Offset", "shape": [288], "dtype": "float32"}, {"name": "MobilenetV2/expanded_conv_11/depthwise/BatchNorm/FusedBatchNorm/Scaled", "shape": [288], "dtype": "float32"}, {"name": "MobilenetV2/expanded_conv_11/depthwise/depthwise_weights", "shape": [3, 3, 288, 1], "dtype": "float32"}, {"name": "MobilenetV2/expanded_conv_11/expand/BatchNorm/FusedBatchNorm/Offset", "shape": [288], "dtype": "float32"}, {"name": "MobilenetV2/expanded_conv_11/expand/Conv2D/merged_input", "shape": [1, 1, 48, 288], "dtype": "float32"}, {"name": "MobilenetV2/expanded_conv_12/project/BatchNorm/FusedBatchNorm/Offset", "shape": [48], "dtype": "float32"}, {"name": "MobilenetV2/expanded_conv_12/project/Conv2D/merged_input", "shape": [1, 1, 288, 48], "dtype": "float32"}, {"name": "MobilenetV2/expanded_conv_12/depthwise/BatchNorm/FusedBatchNorm/Offset", "shape": [288], "dtype": "float32"}, {"name": "MobilenetV2/expanded_conv_12/depthwise/BatchNorm/FusedBatchNorm/Scaled", "shape": [288], "dtype": "float32"}, {"name": "MobilenetV2/expanded_conv_12/depthwise/depthwise_weights", "shape": [3, 3, 288, 1], "dtype": "float32"}, {"name": "MobilenetV2/expanded_conv_12/expand/BatchNorm/FusedBatchNorm/Offset", "shape": [288], "dtype": "float32"}, {"name": "MobilenetV2/expanded_conv_12/expand/Conv2D/merged_input", "shape": [1, 1, 48, 288], "dtype": "float32"}, {"name": "MobilenetV2/expanded_conv_14/project/BatchNorm/FusedBatchNorm/Offset", "shape": [80], "dtype": "float32"}, {"name": "MobilenetV2/expanded_conv_14/project/Conv2D/merged_input", "shape": [1, 1, 480, 80], "dtype": "float32"}, {"name": "MobilenetV2/expanded_conv_14/depthwise/BatchNorm/FusedBatchNorm/Offset", "shape": [480], "dtype": "float32"}, {"name": "MobilenetV2/expanded_conv_14/depthwise/BatchNorm/FusedBatchNorm/Scaled", "shape": [480], "dtype": "float32"}, {"name": "MobilenetV2/expanded_conv_14/depthwise/depthwise_weights", "shape": [3, 3, 480, 1], "dtype": "float32"}, {"name": "MobilenetV2/expanded_conv_14/expand/BatchNorm/FusedBatchNorm/Offset", "shape": [480], "dtype": "float32"}, {"name": "MobilenetV2/expanded_conv_14/expand/Conv2D/merged_input", "shape": [1, 1, 80, 480], "dtype": "float32"}, {"name": "MobilenetV2/expanded_conv_15/project/BatchNorm/FusedBatchNorm/Offset", "shape": [80], "dtype": "float32"}, {"name": "MobilenetV2/expanded_conv_15/project/Conv2D/merged_input", "shape": [1, 1, 480, 80], "dtype": "float32"}, {"name": "MobilenetV2/expanded_conv_15/depthwise/BatchNorm/FusedBatchNorm/Offset", "shape": [480], "dtype": "float32"}, {"name": "MobilenetV2/expanded_conv_15/depthwise/BatchNorm/FusedBatchNorm/Scaled", "shape": [480], "dtype": "float32"}, {"name": "MobilenetV2/expanded_conv_15/depthwise/depthwise_weights", "shape": [3, 3, 480, 1], "dtype": "float32"}, {"name": "MobilenetV2/expanded_conv_15/expand/BatchNorm/FusedBatchNorm/Offset", "shape": [480], "dtype": "float32"}, {"name": "MobilenetV2/expanded_conv_15/expand/Conv2D/merged_input", "shape": [1, 1, 80, 480], "dtype": "float32"}, {"name": "image_pooling/BatchNorm/FusedBatchNorm/Offset", "shape": [256], "dtype": "float32"}, {"name": "image_pooling/Conv2D/merged_input", "shape": [1, 1, 160, 256], "dtype": "float32"}]}]}